Notebooks/lstm_model_best.pth (torch, 305320 bytes, 10 tensors)

lstm.weight_ih_l0 f4 [300, 18]
00000000: b582 f33d af54 e4bd 526c 013e 5bb2 fa3c
00000010: e1c7 aa3d bff7 12bd 27ec dfbd e733 aebd
00000020: dae9 e8bd 8a22 7bbd 46e5 793d 6c39 fbbc
00000030: e5d0 1b3e 4dea abbc 6f60 24bd ee47 91bd
00000040: fd4c 0e3d 7174 bcbd d6ba 133c fd77 c6bc
00000050: 758a dabc 19cf b53d df8e 013e d0b4 283d
00000060: 2754 a83d 551f 98bd a8f2 19bd 32d6 333d
00000070: 46c4 0bbc 71f7 79bd 576b 01be 164b 12be
00000080: 3fce 8d3d 3b97 bbbc d734 c3bc fe6f 02be
00000090: e3b4 763d 04c7 11bd 5a7f 443b 4cee 0bbe
000000a0: c262 72bd 543d 623d b584 1abd 13d0 923d
000000b0: cffa 223d b35c 793d dae9 3e3c e5fa 363c
000000c0: a697 90bd 3018 3d3e e9d8 5b3d 8bc0 983d
000000d0: 5047 b73a 0d60 7f3d aad4 f8bb be90 e53d
000000e0: 7a48 9b3d ee77 98bd b8e9 fcbc 454b 683d
000000f0: 4166 85bd 052b 243e ab98 15bd 7cf7 28bd
00000100: 6d32 d4bd 4c9f a0bd 8941 b83c 75c0 50bb
00000110: 0fae 333d 566d d53d 6e82 11be 5066 a33d
00000120: d3e0 c2bd 22ab 1fbd 09ee ee3d fe07 1fbb
00000130: c47d 43bd 2547 0c3d 8cf4 b9bd 1ebb 223d
00000140: 740f d23d 94ef 8abc d116 bb3d b43b 60bc
00000150: c16a b7bd ac82 cfbd 52aa 9a3d ebba 533d
00000160: 1db7 acbd d693 3d3d 9b7a cdbd c367 41bd
00000170: c67b a53d da4a 4b3d 9ec7 cf3c f711 00be
00000180: 36d4 9bbd 43ba 2d3b 7f9a f5bd 2f92 6e3e
00000190: 23ee 033e 3433 25bd 97b9 a63d e7ea e73d
000001a0: 5b65 0cbd 2027 853d 23ca 33bc 6aee 2fbe
000001b0: d0d5 1ebc c842 c9ba 9770 2bbc ccd0 ed3c
000001c0: 7e0c 7a3d 98ea 0b3e fcb3 fb3c 1d8d 14bd
000001d0: 822d e73b 15fc a73d 2df5 8b3d 8286 33bd
000001e0: 9852 5d3d 32ee bd3d 185a 053e ec0e 923d
000001f0: 31a2 bdbd fdf0 d73d 3e1a 1c3c 7120 4d3c
00000200: ee61 0c3e 0d37 eb3b 27fe 643e 4a06 f03d
00000210: c68e c83d 5eac 943c 46d8 5ebd d7b8 003d
00000220: ce3f 2f3e efed 953d 7095 7a3d 138d 8fbd
00000230: aeec 0e3d 7b50 4cbd 7301 f83d 879a b5bd
00000240: edf1 8dbc c360 08be e651 48bd 3414 e03a
00000250: 8104 d63d 054b 53bd 2b3d 5c3d ae20 9ebd
00000260: 5cca 453e fe66 1fbc ada9 e63c dbce b5bd
00000270: cd69 1cbc 4e78 2dbd 7e86 783d 3665 0cbe
00000280: b358 06be e56b 03be 5d01 b7bc 7566 d0bc
00000290: de72 c2ba cec7 a23c 2e21 763c 374b ebbd
000002a0: 1ec5 843d 4768 e6bd 65ae 26bd bfdb 963c
000002b0: c7a8 bdbd bf6d f13c fbf2 bebd 13a3 f03c
000002c0: 424b a4bd 4009 b13d d5e2 d1bd 0f8e e5bc
000002d0: e3cf da3c 6148 803d c2ee 973d 1bdd 14bd
000002e0: 3c09 eebc 05db 513d 66c0 513d de23 66bd
000002f0: 8683 f03b 6864 96bd 772d fbbc 3736 583e
00000300: 6bd2 97bd 8962 943b 3886 91bc 0d60 94ba
00000310: 3f0a 263d f2d1 203d 03fd 703c 89ad ec3d
00000320: 59f5 523d 91e9 673d 973e 50bd 3f72 053d
00000330: 9f5c a53d abc0 3bbd 5d36 d23d a7b6 c33b
00000340: a5fd 593d 22a4 3d3d 18f0 02be e674 4dbd
00000350: 8eac 393d 7862 f93c 0395 7dbc 4097 9c3d
00000360: 82a2 99bd 55df 06be 1723 f73c a776 86ba
00000370: abb8 dd3d 5f55 7cbd 6559 353e 2441 ce3d
00000380: 4fe0 e33d c78c 763d d5cd c3bd 321b f1bd
00000390: 5b20 8fbd 113c 7a3d 20a6 323d e559 1dbd
000003a0: 83f6 363b d96e edbc b061 d4bb 02f3 173d
000003b0: e811 c3bd 15d0 f0bd 0f3b 853d 5777 cabd
000003c0: ffda e23d 1bf6 a43d 273f bbbc 6481 bfbc
000003d0: 91fa 033d 95ea d53d 108e 4dbd b1f4 b03d
000003e0: c651 0bbe 3439 273d 4a20 8e3c 41d9 243d
000003f0: e5db df3d 26af 12bd 984a 41bc fcf7 ad3d
0.11890165 -0.111489646 0.12638977 0.030602625 0.08338905 -0.0358808 -0.10933714 -0.08505993
-0.11372729 -0.061312236 0.061009668 -0.03066703 0.15216406 -0.020985747 -0.04013103 -0.070937976
0.03474139 -0.09201897 0.009016713 -0.024227137 -0.02667735 0.08877391 0.12652157 0.04118806
0.08219176 -0.07427851 -0.03758493 0.043905444 -0.008530682 -0.061026994 -0.12638603 -0.14286456
0.06924104 -0.02289926 -0.023828907 -0.12738034 0.0602311 -0.035590187 0.0029983134 -0.13665122
-0.059176214 0.05523427 -0.037724216 0.07168593 0.03978997 0.06087942 0.011652434 0.011168216
-0.07060175 0.18466258 0.05367366 0.074586 0.0013983045 0.06234746 -0.007593711 0.11209248
0.07582183 -0.0744475 -0.030873165 0.056712408 -0.06513644 0.16032036 -0.03652255 -0.041251644
-0.103611805 -0.078428835 0.022492187 -0.0031852995 0.043867167 0.10421245 -0.14209911 0.07978499
-0.09515538 -0.038981564 0.11666495 -0.0024266238 -0.04772736 0.034247536 -0.09079847 0.03972923
0.10256854 -0.016959943 0.09135211 -0.013686109 -0.089559086 -0.101323456 0.07552017 0.05169193
-0.084333636 0.046283565 -0.10033151 -0.047218096 0.080802485 0.04963193 0.02536374 -0.12506853
-0.076088354 0.0026508726 -0.119923584 0.23297952 0.1288381 -0.040332034 0.08140867 0.11324101
-0.034276348 0.06501603 -0.010973486 -0.17180791 -0.009694532 -0.0015354985 -0.010463855 0.029030226
0.06104707 0.13663709 0.030725472 -0.03626739 0.0070549855 0.08202378 0.06833873 -0.04382945
0.054033846 0.09273948 0.1302265 0.07131752 -0.09259451 0.10544012 0.009527741 0.012519942
0.13709232 0.0071781934 0.22362576 0.117199495 0.09792857 0.018148597 -0.054405473 0.031426277
0.17114183 0.07320773 0.06117767 -0.0700933 0.034893684 -0.04988144 0.121096514 -0.088673644
-0.017327273 -0.13318162 -0.04890623 0.0017095865 0.10450078 -0.051585216 0.05376927 -0.07721077
0.19315475 -0.009729145 0.02815708 -0.08877345 -0.009546709 -0.04235106 0.060675137 -0.13710484
-0.13119774 -0.12834127 -0.022339517 -0.02543948 -0.0014835258 0.019870665 0.015022559 -0.114889555
0.064829096 -0.11250358 -0.04069366 0.01841533 -0.09260707 0.029471276 -0.093236886 0.029374635
-0.08022167 0.086443424 -0.10248343 -0.02802184 0.026710456 0.06263805 0.07418586 -0.036343675
-0.029057138 0.051234264 0.051208876 -0.05618655 0.0073398976 -0.0734337 -0.030661328 0.21114431
-0.07413181 0.004528348 -0.017764196 -0.0011320129 0.040537115 0.03926272 0.01470876 0.11556537
0.051503513 0.05661923 -0.05084094 0.032579657 0.08074307 -0.04583804 0.10264275 0.0059727016
0.05322041 0.046299107 -0.12786901 -0.05016031 0.045330577 0.030442461 -0.015477422 0.07646036
-0.07501699 -0.13171132 0.0301681 -0.001025875 0.10826238 -0.061604854 0.17709883 0.10071018
0.11126768 0.06019285 -0.09560744 -0.11772765 -0.06988593 0.06109244 0.04361546 -0.03841581
0.0027917929 -0.02898352 -0.006481372 0.037096985 -0.095249 -0.117584385 0.06505405 -0.098860435
0.110769264 0.080547534 -0.022857262 -0.023377128 0.03222138 0.104451336 -0.05018431 0.08640421
-0.13605413 0.040826038 0.017349381 0.040246252 0.109306134 -0.035811566 -0.01179757 0.08494565

lstm.weight_hh_l0 f4 [300, 75]
00000000: bfde a83d 87f7 f53d a1bb 81bc 386b df3d
00000010: f756 8b3d 62d1 30be a90a 853d b1b3 d3bd
00000020: b01e 9abd 88c2 a7bc 8f95 aebb 5723 a53b
00000030: 59f8 db3d 48f6 91bd 4529 07bd 8734 4e3d
00000040: 5c00 af3d c27d 223b e67c b9bd e925 d03d
00000050: fef8 cebb 020a e0bc cf42 8b3d 10d9 c13d
00000060: f8ea 05bc 091b a6bd 6ad6 ec3c f02d c23d
00000070: 00e3 b53c 9c6e eebd 3524 97bb 412c aa3d
00000080: f36a 6abd 2cf9 db3d bd87 91bd 19a7 163e
00000090: 834c 363d 2293 dc3d 7a12 e23d 08e5 923d
000000a0: 155b bf3d 6db1 7cbd 22c6 7c3d 9872 14bd
000000b0: 102e e3bc 1b0f bf3b 5fc2 c43d 78a2 eebd
000000c0: 11c3 d03c b4ad a6bd d935 cf3c a049 9bbd
000000d0: 9fe4 a43c b0d6 12bd 7f12 f3bd 9a3c b1bd
000000e0: f7c2 06be 70b6 50bd 8aee 99bd 7c83 123d
000000f0: 79ce 8bbd 0621 07be 3cfb 8abd 9a9f dc3d
00000100: 0df7 dcbc 038c 873d 1f35 09bd d8a3 64bd
00000110: 4964 ae3c 0b91 9e3d c648 06bd 7ada b6bc
00000120: e334 bfbc 56c0 993d fce9 323d ae73 05bd
00000130: 8caf 823c 3019 39bd b2c6 173e fc37 083e
00000140: ec54 963d 518a c13d faee cb3d 6f96 43bd
00000150: 52bc cdbd 2f79 b1bd fe31 bfbd 1017 953d
00000160: cdba ba3d c51d 46bd cf32 c33b 9551 d6bd
00000170: 17f6 703d 3a94 a33d 39b8 153d 1218 dfbd
00000180: f63e 763c 694d de3b 66c5 123c 2c0c cdbd
00000190: 4b5d 973d 56b9 b43d 09c6 ca3c a724 cebd
000001a0: 27eb 683d 6b12 64bc 335d 59bd d2b5 653d
000001b0: a68d 5e3c 729a 2bbe f383 b03d 3487 89ba
000001c0: 8815 dd3d cdc1 11be 076f 103e f4a2 11be
000001d0: 3c36 b43d 80ab dfbd 9619 833c 5edd 643c
000001e0: 16eb cf3d 14ee c3bd 4868 d3bc 37c5 7a3d
000001f0: 0b72 333d 0970 0dbe 8311 4bbe ded5 b03d
00000200: 14a9 97bd b803 133d 102a 8ebd 5b9e 683b
00000210: 2b54 35bc 8ff2 f83a 8320 12bd 4626 1ebd
00000220: 7733 1f3c 6adb 323d 047f a23d 7e6e da3d
00000230: 0140 72bc c060 8939 a2a8 61bd c51e a73d
00000240: 9224 d73d 30ad f4bd 955e ec3c 9fb3 473d
00000250: be26 ea3d b806 e03d 935c ddbd 15ef 8ebd
00000260: c4cb dabd e23e acbd 283c 8ebc 7b37 873c
00000270: 36c9 09bd ebbb 4a3d 0638 7f3d a7a4 3fbd
00000280: 8d83 8d3d a170 81bd b152 4fbd d2b7 883d
00000290: cf17 e23c 0a64 ca3d d189 353e f553 883a
000002a0: 9d7f c4bd 9b24 183e aacb 54bd bfb0 30bd
000002b0: f50b 34bd 580e 003e 7570 003e 68ac b9bd
000002c0: 96d8 b1bd b5a9 acbd 5eb8 3fbd 65dc 4a3d
000002d0: a2f2 6b3d 5609 6cbc 766f 6abd 07af 0d3e
000002e0: 0c57 6c3d ec31 703d 71ea 02bd 0fed 103d
000002f0: 4071 a23c 3ac8 13be e695 04bd adc5 e03d
00000300: fe7f 203e ba94 d53c 7f57 e9bc 60bf 0bbd
00000310: fdcf e5bd c77e b6bd fa78 8cbc 4ab3 e1bb
00000320: af63 133d ff07 883d 6549 62bd 660f fa3d
00000330: f4e6 103d fdd3 223d 4497 6cbd 8415 f53d
00000340: 831c dabd 29ab fd3c 3535 aabd 341d 0cbc
00000350: 76bd e5bd e5a5 bf3c a63c b83c c639 4b3d
00000360: fbff e03d 7d0f 943d c38d 40bd 717c bbbc
00000370: 5fbf b63c 219b 90bb be4f 3d3d da44 b83d
00000380: 0f6a e9bd b2d2 a1bd b5a2 c53b dfce ffbd
00000390: e29f 51bd 1d88 173d f656 e5bc d0a2 87bd
000003a0: 2535 d4bc 7f09 38bd a0c1 a53c 0513 9d3b
000003b0: e2e2 be3c 0033 393d f8ab 103e 11d3 80bd
000003c0: 6a46 d33d 5ddf f9bd daa6 6cbd 7762 b03b
000003d0: 003d 95bc 80db b6bd a33e bf3c 4482 103c
000003e0: 019d 913d 68fc d0bd 2a23 bebc b659 86bd
000003f0: 5b88 83bd 282b bd3d f560 973d 244a 0a3e
0.082456104 0.12010103 -0.015836539 0.10909122 0.068036966 -0.17267373 0.06496174 -0.10337008
-0.075253844 -0.020478502 -0.0053278874 0.005039613 0.10740728 -0.071270525 -0.032998342 0.050343063
0.085449904 0.0024794196 -0.090570256 0.10163481 -0.0063163033 -0.027348522 0.06799852 0.094652295
-0.008173697 -0.08110625 0.028910834 0.09481418 0.022202969 -0.11642191 -0.0046124705 0.08309222
-0.0572309 0.10740885 -0.07105968 0.1471218 0.04450656 0.10770251 0.110386804 0.071725905
0.093435444 -0.061692644 0.06171239 -0.036242098 -0.027731925 0.005830658 0.09607386 -0.11652082
0.02548364 -0.081386 0.025294231 -0.07582402 0.020128546 -0.035849273 -0.11868762 -0.08654137
-0.1316031 -0.050955236 -0.07516201 0.035769925 -0.06826491 -0.13196191 -0.067862004 0.10772629
-0.026973272 0.06618502 -0.033497926 -0.055820316 0.021288054 0.077425085 -0.032784246 -0.022320975
-0.023340648 0.07507388 0.043680176 -0.032581024 0.015952848 -0.045190036 0.1482189 0.13302606
0.07340416 0.0945021 0.099576905 -0.047750887 -0.10045685 -0.08665692 -0.09335707 0.072797894
0.09117661 -0.048368234 0.0059569846 -0.10464779 0.05882844 0.07987256 0.03655264 -0.10893263
0.0150296595 0.0067841304 0.008958196 -0.10012087 0.07390841 0.088244125 0.024752634 -0.10065585
0.056864884 -0.013920407 -0.053067397 0.0560816 0.013583576 -0.16758135 0.08618917 -0.0010492564
0.107951224 -0.14234085 0.14104854 -0.14222318 0.08799407 -0.10921383 0.016003411 0.013968794
0.10152261 -0.09566894 -0.025806561 0.061223235 0.04380993 -0.1381227 -0.19830899 0.08634542
-0.07405296 0.03589222 -0.069416165 0.0035494778 -0.0110674305 0.0018993187 -0.035675537 -0.03861072
0.00971686 0.04366628 0.079343826 0.10665606 -0.0147857675 0.0002620276 -0.05509246 0.08160166
0.10505022 -0.119470954 0.028853694 0.048755284 0.11433171 0.109387815 -0.10808673 -0.06979195
-0.106833965 -0.084104314 -0.01736267 0.016505947 -0.033639155 0.04949562 0.062309287 -0.046787884
0.06909857 -0.063203104 -0.05061597 0.06675686 0.027599243 0.09882362 0.17728354 0.0010400998
-0.09594653 0.14857714 -0.05195204 -0.04313731 -0.043956716 0.12505472 0.12542899 -0.09066087
-0.086838886 -0.084308065 -0.046806686 0.04952659 0.05760444 -0.014406523 -0.057235204 0.13836299
0.057700202 0.05864136 -0.031961862 0.035382327 0.019829392 -0.14431849 -0.032369517 0.10975204
0.15673825 0.026071895 -0.028484104 -0.034118056 -0.11221311 -0.089108996 -0.01714753 -0.006887828
0.035983738 0.0664215 -0.055245776 0.12209968 0.035376504 0.03975295 -0.057761446 0.119669944
-0.106499694 0.030965405 -0.0831093 -0.008551884 -0.112177774 0.023394534 0.022489857 0.049615644
0.109863244 0.07229517 -0.047010195 -0.022886487 0.02230805 -0.004413024 0.046218626 0.089975074
-0.11397182 -0.07901515 0.006031359 -0.124906294 -0.051177867 0.036995042 -0.027995568 -0.06622851
-0.025904248 -0.04493093 0.02023393 0.004793527 0.023301546 0.045214653 0.14128101 -0.06290258
0.10316165 -0.12200806 -0.05777631 0.0053828317 -0.018217564 -0.08928585 0.023345297 0.00882012
0.07110024 -0.10204393 -0.023210127 -0.0656008 -0.06422492 0.09236747 0.0739154 0.13504845

lstm.bias_ih_l0 f4 [300]
00000000: 1bba 323d f76a c2bc ae19 523d 7e05 f9bd
00000010: 2396 c93c dedc 16bd f852 5a3c a32e 7a3d
00000020: 31f7 1abd 92f9 1b3d 25d3 35be aee7 19be
00000030: d6be c53d c804 80bc b5ec 413d 2f2d bcbd
00000040: ee11 11be 528c e3bd bda9 13be b19e ffbc
00000050: 56e5 b63d 5bc5 9fbd efea c3bd 1126 55bc
00000060: 4d38 1f3e 94e2 eebd 6fc0 573d 6ec8 2ebe
00000070: 089e c03d cd78 b4bc 20b0 e43d 0515 00bd
00000080: 732d 65bc fe84 96bd 67d2 23bc 88c1 a2bd
00000090: 15f4 7cbc d9cd b53a f8a4 263c 130c 793b
000000a0: 0d3b 04be 61c1 993c 7a39 39bd c343 a2bc
000000b0: e336 9e3d a6d2 e5bd 953d 3abd 5c76 b3bd
000000c0: d518 4f3d 5d25 05bd ba83 8cbd 138d d9bc
000000d0: a972 edbc 6010 bcbd 5d61 1fbe 79eb c9bd
000000e0: d838 f8bd ed2d df3d c6ba b33d 8b76 04bd
000000f0: fc95 e33c feaf cabd c223 d0bd 3702 1fbc
00000100: 32ae 5e3d a57b 2e3d b81d 0dbe d6b7 c0bd
00000110: 30c3 703d b1a4 963c c5b4 30be 8e78 393d
00000120: 3d42 3abc 5877 d83d f478 aa3d 8a6f b6bc
00000130: 9408 02be 7a22 78bc 212e 3abd 3307 6dbd
00000140: bb9f 7bbb 74af a1bd 24e7 14be c55a 93bd
00000150: 7060 cfbd 0f08 4cbd e531 513d 1ca4 aabc
00000160: 1643 3e3d ab57 a8bb 432c 26be 3bc4 773c
00000170: e737 15bd bade 2cbe 9e8b afbd e5a8 1abd
00000180: 715b 1abc 8564 18bd 1074 a0bb 8587 f93c
00000190: 4ec9 08bd 7c50 ec3c 53ea 8cbb b372 6dbd
000001a0: 1bfa 8b3c a34d 963d 56c0 f13d e124 b6bd
000001b0: 94f0 01be f0dd ef3d 1242 b5bd 7314 953b
000001c0: 1896 f2bd fef8 5ebc 9953 713d 24ac cabd
000001d0: 6bb1 c6bd 35ab ed3d bbbc b3bc eef1 81bd
000001e0: 43d5 39bd 29f0 b9bc 7c73 12be 0a2e 45bd
000001f0: 717b 343c 18d7 10bd cde9 42bc 6de9 0f3d
00000200: 0393 3cbd 57db 57bd 51aa c1bd 675c a4bc
00000210: 614c f7bc 2845 cfbd b608 aebd 8323 bbbd
00000220: 5dd6 debd c51e 88bd 65b1 913c 05bd f6bd
00000230: d937 06be 6066 69bd ab19 923c f977 0c3e
00000240: 45d6 2c3c 9f9e 63bd 640e fdba 91be ecbd
00000250: ec5e 70bd ed73 ff3c 75a0 1bbd 55bb 2f3d
00000260: 2e63 56bd 0687 223d 32ab 683c dfed 123d
00000270: 8326 2d3d a75f 9f3d 15ec c73c b061 ab3d
00000280: c61f f43b c30d 92bd ca4b 88bd 724d b8bd
00000290: e337 4a3d 7c21 e5bb 745b bcbd 6252 24bd
000002a0: 477c bdba 74a3 a9bd 5ce9 1fbd 65f9 54bc
000002b0: 5012 10bd cbcc b7bc 37e3 7cbc 77b6 c03d
000002c0: 04ce 5e3d 46e0 dd3a 1f0b 94bd e7fc 59bd
000002d0: 3ead 3d3b 73ef 7dbd 1491 4c3d a158 ef3c
000002e0: 3110 dabc 906e fc3c 949e 2f3c 0547 babc
000002f0: b754 a93d 68a1 3b3c 5a5d 07bc 0f52 5a3c
00000300: 9ea0 89bd cee2 24bb dc3f 5dbd 7278 5bbc
00000310: cfba 0fbd cd77 4b3c a557 fabc 2be2 3cbd
00000320: 54f2 1ebb d778 aa3d 94cc aabd f7ca b7bd
00000330: 4864 9bbd 6c9c 83bd 06c5 033d dd9d 4abd
00000340: 10e3 71bd 949f d13c fe87 3abd a888 dd3c
00000350: 9ede b03c 1f27 8ebd d7fe 43bd bbd5 85bd
00000360: 0739 44bc 3361 bfbc 625f 83bd 747a 623d
00000370: afb6 6b3d 217f 613d eb04 333d 3683 783d
00000380: e592 3f3d 22f2 0b3d 8032 6ebd 891d 80bd
00000390: b97f a03b 1b86 5abd 0ca3 cebd c654 c1bd
000003a0: e25a 423d 8e71 2bbd 5bd2 dfbd 5889 e5bd
000003b0: 2f6f 0ebe 6200 63bb 73a3 31bd 6fa5 2c3d
000003c0: 0c70 8abc 3004 0ebe 3461 57bd 045b 04be
000003d0: 675d f5bd 5dbd 633d bda9 dc3d e497 bdbd
000003e0: c7c1 3fbd 039b c0bc 9d0e 263d 67bb c9bd
000003f0: acc8 13be c3d3 b83d 16e7 b8bd a0d1 8abd
0.043634515 -0.023732645 0.05129402 -0.12159251 0.024607724 -0.03683173 0.013325445 0.061079632
-0.037833396 0.038079806 -0.17756326 -0.15029785 0.0965554 -0.01562728 0.047344882 -0.091883056
-0.14166996 -0.11110748 -0.14420219 -0.0312036 0.08930461 -0.078013144 -0.095662944 -0.013009564
0.15548821 -0.1166431 0.052673753 -0.17068645 0.09405142 -0.022030259 0.11166406 -0.031270046
-0.013987887 -0.07349585 -0.009998894 -0.079470694 -0.015439053 0.0013870551 0.010171168 0.0038001582
-0.12913151 0.018768968 -0.04522083 -0.019807702 0.077253126 -0.112218186 -0.045468885 -0.0876281
0.05056079 -0.032506336 -0.06861062 -0.026556527 -0.028985338 -0.09182811 -0.15564485 -0.09859366
-0.12120217 0.108974315 0.087758586 -0.032339614 0.027781479 -0.09896849 -0.1016307 -0.009705118
0.054365344 0.042598385 -0.13780868 -0.09410064 0.058779895 0.018389078 -0.17256458 0.045280986
-0.0113683315 0.10569638 0.08323851 -0.022269983 -0.12698585 -0.015144939 -0.04545415 -0.057868194
-0.0038394767 -0.07894793 -0.14541298 -0.07195047 -0.10125816 -0.049812373 0.051072974 -0.020830207
0.046450697 -0.005137404 -0.16227822 0.015122469 -0.036430266 -0.16881838 -0.08571552 -0.037758727
-0.009421215 -0.037205238 -0.004896648 0.030460129 -0.033395104 0.028846972 -0.0043003946 -0.057970714
0.017087033 0.07339027 0.11804263 -0.08893753 -0.1268943 0.11712253 -0.088504925 0.004549557
-0.11845034 -0.013609169 0.058917616 -0.098961145 -0.097018085 0.11604921 -0.02194058 -0.063449726
-0.045369398 -0.022697525 -0.14301866 -0.04813961 0.011015759 -0.03536138 -0.011896563 0.03513472
-0.04603864 -0.052699413 -0.094563134 -0.020063592 -0.030187787 -0.101206124 -0.08497755 -0.09137633
-0.1088073 -0.06646494 0.017784784 -0.12047771 -0.13107242 -0.056982398 0.017834505 0.13717641
0.010549133 -0.055571195 -0.0019306657 -0.11559785 -0.058684275 0.031183207 -0.03799482 0.042903263
-0.05234068 0.03967955 0.014200972 0.035871383 0.042273056 0.07781916 0.024404565 0.08368242
0.0074500768 -0.07131531 -0.066550806 -0.089991465 0.049369704 -0.006992517 -0.09197131 -0.04011763
-0.0014456593 -0.08283129 -0.03904091 -0.012998913 -0.035173714 -0.02243652 -0.015435032 0.094098024
0.05439569 0.0016927801 -0.07228684 -0.053219702 0.0028942372 -0.061995935 0.049943045 0.029217066
-0.026619049 0.030814439 0.01071896 -0.022738943 0.08268111 0.0114520565 -0.008262003 0.013325228
-0.067200884 -0.00251596 -0.05401598 -0.013395416 -0.035090264 0.012418699 -0.03055937 -0.046114128
-0.0024253326 0.083238296 -0.083398014 -0.08974259 -0.075874865 -0.064263195 0.032170318 -0.049466956
-0.059054434 0.025588788 -0.04553985 0.027042702 0.021590527 -0.069410555 -0.047850456 -0.065349065
-0.011976487 -0.023361778 -0.06414677 0.05529256 0.057547268 0.05505288 0.043705862 0.060672008
0.04677095 0.034166463 -0.05815363 -0.062556334 0.004898038 -0.05335055 -0.100896925 -0.094399974
0.047449954 -0.04185634 -0.10928794 -0.11207837 -0.139096 -0.003463768 -0.043368768 0.042149957
-0.016899131 -0.13868785 -0.052582934 -0.12925345 -0.11980706 0.055600513 0.107745625 -0.092574865
-0.04681566 -0.023511415 0.04054128 -0.09850197 -0.14432019 0.09024765 -0.09028451 -0.06778264

lstm.bias_hh_l0 f4 [300]
00000000: 1be4 3a3d cc5e 61bd 5fa1 033d 5ea1 80bd
00000010: 3f9e 96bb 1dfe 8ebd 981f b2bd 0fb5 a8bc
00000020: 405f c83d 0c06 563d 8944 25be b443 da3c
00000030: 6e21 963d 7ba0 b6bc 23e7 b6bb f09c f53b
00000040: 4aae 983c a94b c6bc 3e53 313d d13f 1e3c
00000050: 1f0e fd3c 684e 36bd b823 2b3d f2b4 863c
00000060: d152 ca3d 3312 24be fce9 fb3c 6629 02be
00000070: e03e f83a 1a1d cebb ae08 0b3d fdae 9cbd
00000080: 7a53 573c 683f 10bd 7c4d e63d 35fe 0d3d
00000090: 6c6d 6cbd 8b2e d4ba f383 82bd 978f 233c
000000a0: 6268 07be ec11 dfbc 66b9 413d 439f dbbc
000000b0: 61c1 04be 012b 38bd 8bae d7bd 34b8 8fbd
000000c0: 7d54 eebd b7b8 183d a3e8 be3c 308f ba3d
000000d0: 28e6 4e3c c78d d63b bb34 19be 9861 b63d
000000e0: 629d bd3c 752f 1e3d b0ce bd3c 3fab 70bd
000000f0: 9efa 92bd d6ac d7bd 68d7 6c3d fb8f c63b
00000100: 9b8c 19be c147 ec3c ef59 65ba 24b1 86bd
00000110: ca30 093e 7e48 2d3c 75d9 223c 5afb 3ebb
00000120: 8339 efbd 3696 c93d ca3c c1bd 7800 993c
00000130: 4ace 49bd db89 21bd d156 213d 5076 ac3c
00000140: 1593 06bc 40f0 99bd 2764 84bd 3682 5f3d
00000150: c80c ac3d 2a4b 12bb bd4b 613d 3f05 8cbd
00000160: adb1 6d3d faf8 9bbd 6ce9 5e3c 6ee9 f1bd
00000170: 6d49 9dbb 13e5 7c3c c02b 843c 99b2 1c3d
00000180: 2912 6fbc 9a9f 82bd 8a81 563d 8995 0fbd
00000190: 1baf 2ebe ac9c e73c fc30 8abc 2b1a dc3d
000001a0: bc9e 463d 79bb ab3d a44f 8c3c 0361 a7bd
000001b0: 49a5 0abe 6c6d 83bd 5fc9 a23c 0164 34be
000001c0: 8dd1 0abe 1fd2 71bd cdae 5bbd 5166 afbd
000001d0: 6978 12bc 0cd4 6fbd 8d75 0abd 6b37 853d
000001e0: 5926 203d 1374 1b3d e650 91bd 50d2 393d
000001f0: e234 5abd bb10 2b3a 7aa2 1dbd 5c78 cd3d
00000200: 8c8d 973d a221 10be 418c 86bd 18af 7ebd
00000210: 26fa 933d be2f 3f3d 2576 e13c 383d 21be
00000220: b4c2 b7bd 2624 bebd 5439 2f3d 9c41 1bbe
00000230: fbd1 8fbd 9d4b cfbd 77b5 0a3d 9315 f73d
00000240: e5ae bc3c be6a d5bd efbf ba3c 7ecc 5d3c
00000250: 7e57 143e ef93 ac3d ecea 2d3d c980 7e3d
00000260: 34ea 843d 3be4 603d 2dec 613d 325a 9abc
00000270: 6a57 fa3c 43d2 5fbd de9a 6abd 171c 223d
00000280: 0b4c 493c 9429 48bd 08cb c0bd 7042 2e3d
00000290: cf53 15bd 58e0 30bd fe6c ae3d fa27 b23d
000002a0: 136e 9d3c ce78 053d e9ff b73d ccac 103d
000002b0: 6893 6a3d 366e 233d 2aa4 b83d 618c cebd
000002c0: f465 dcbb a484 843c ed2b b53d 378b e4bc
000002d0: 895d 67bc 5a4d 8cbd 5f13 81bd 0282 71bd
000002e0: da83 65bc 4585 c9bd c683 b33d e05c 4f3d
000002f0: 28d5 193d 1820 b23d 8418 82bd ba7c da3c
00000300: b827 ba3d 258b 99bd 64cf 5e3d 010e 283d
00000310: f12f 393c 7a7e b03c 2a3e 21bd c769 473d
00000320: ec74 7c3d c4bb 7abd 95f4 7a3c 6d78 c53d
00000330: ead4 95bb 3895 8dbd 95ed cd3c d93a 91bc
00000340: 4846 133d cdd2 3fbd 0c04 8abd 1f64 0d3c
00000350: 595e 4fbd 3888 72bd f7b8 273d aff5 35bd
00000360: 576a d33c edb7 563d 32d1 2ebd 76de 14bd
00000370: 2df2 c3bb 346b 31ba 3b7d 1f3d ad27 9f3d
00000380: c837 b0bd 7e9a 89bd f595 76bd 473b 6a3c
00000390: c6e5 16be 3a27 06be 245f 10be fa4b 1c3d
000003a0: 121c 0bbd 8580 9e3d 78cc c3bb 907a 2c3c
000003b0: 4e07 0abc cdb2 e73c 79ac c83b b1b1 d7bd
000003c0: b2b3 31bd aef0 58bd 841b 4cbd fe97 3f3d
000003d0: f22b 1cbe 2417 fdbc b6b4 153b e804 c3bd
000003e0: 82dd 6d3b 7b95 98bd 8225 10be a75c dcbd
000003f0: cfcf 67bc d942 ea3c 3434 5f3d c4c8 bb3d
0.045627695 -0.055022046 0.032136317 -0.06280778 -0.004596501 -0.06982062 -0.08697432 -0.020594148
0.097837925 0.05225186 -0.16139425 0.026643611 0.07330595 -0.02229332 -0.005581753 0.007495515
0.018637795 -0.024206 0.043292277 0.00965877 0.030890523 -0.044508368 0.04178211 0.016443703
0.09879077 -0.16022567 0.03075122 -0.12711105 0.0018939637 -0.0062900903 0.033943824 -0.07650564
0.013142461 -0.03521672 0.11245248 0.03466626 -0.05772154 -0.0016188187 -0.063728236 0.009982965
-0.13223413 -0.027230226 0.04729595 -0.02680934 -0.12964393 -0.044962887 -0.10531338 -0.07017556
-0.116372086 0.037285533 0.02330429 0.09109342 0.012628116 0.006547663 -0.14961521 0.08905333
0.023146335 0.038619477 0.023169845 -0.058757063 -0.07176708 -0.10531013 0.057822615 0.0060596443
-0.14995043 0.028842809 -0.0008749058 -0.06576756 0.13397518 0.0105763655 0.009939541 -0.0029141516
-0.11680891 0.098431036 -0.09435423 0.018676981 -0.049269 -0.03943811 0.039389435 0.02105251
-0.008213778 -0.07516527 -0.06464415 0.05456754 0.08400875 -0.0022322633 0.05500387 -0.06836938
0.058030773 -0.07615848 0.013605457 -0.11812101 -0.004800013 0.015435475 0.016134143 0.03825626
-0.014591732 -0.06378098 0.05236963 -0.035054717 -0.17058985 0.02827295 -0.01686906 0.10747179
0.048491225 0.08385367 0.01712782 -0.081728004 -0.13539614 -0.06417355 0.019871412 -0.17616273
-0.135565 -0.059038278 -0.0536335 -0.08564437 -0.008939841 -0.058551833 -0.03380351 0.06504711
0.03909907 0.037952494 -0.07095508 0.045366585 -0.05327309 0.00065256254 -0.038485028 0.10032722
0.07400045 -0.1407533 -0.0656972 -0.0621787 0.072254464 0.04667639 0.027522156 -0.1574601
-0.089726835 -0.092842385 0.04277928 -0.15161747 -0.070224725 -0.10121844 0.033864465 0.12064662
0.023032615 -0.1042075 0.0227966 0.013537524 0.144865 0.084266536 0.042460367 0.062134538
0.06489983 0.054905158 0.055156875 -0.018841837 0.03055926 -0.05464388 -0.0572766 0.03957757
0.012286196 -0.048867777 -0.09413725 0.04254383 -0.03645688 -0.0431827 0.08516882 0.08699031
0.019217527 0.03258591 0.08984358 0.035321042 0.057269484 0.039900027 0.09015687 -0.10085369
-0.006726021 0.01617653 0.08846269 -0.027898414 -0.014121422 -0.06850691 -0.06302523 -0.058961876
-0.014008487 -0.09839872 0.08765368 0.050625682 0.037556797 0.08697528 -0.06352332 0.026670802
0.09089607 -0.07497243 0.054397 0.04102898 0.011302934 0.021544684 -0.039365925 0.04868486
0.061634943 -0.061214224 0.015317102 0.0964211 -0.0045725005 -0.06913227 0.025137702 -0.017728256
0.035955697 -0.046831895 -0.06739053 0.008629828 -0.050627086 -0.05921194 0.04094788 -0.044423755
0.025807543 0.0524215 -0.042679973 -0.036344968 -0.0059797973 -0.00067679887 0.03893779 0.077712394
-0.086043894 -0.0671892 -0.060201604 0.014296359 -0.14736089 -0.13100901 -0.14098793 0.038158394
-0.033962317 0.07739357 -0.0059753023 0.010527268 -0.008424593 0.028283501 0.006124076 -0.10531939
-0.04338426 -0.052963905 -0.04983093 0.04677581 -0.15251139 -0.030894823 0.0022843308 -0.0952242
0.003629536 -0.07450386 -0.14076808 -0.107598595 -0.0141486665 0.028596329 0.054493144 0.091691524

lstm.weight_ih_l1 f4 [300, 75]
00000000: a7db 06be 4f11 183d 22af f13c 65a0 263d
00000010: c2e9 00be 9764 ad3c eeff 8838 0737 ef3c
00000020: c4fe c53d 9517 a13d ca10 853d 5a0a 7d3d
00000030: 0efa 883d afe0 e0bd 4451 bc3d 98b6 803c
00000040: 6069 9e3d aeeb b43c f8a9 4abd cb41 8f3b
00000050: 7653 083c b2ca 5bbb 5c06 1dbe eb30 adbc
00000060: 2a2a f0bd bbee f63d b141 f1bc 6d74 aebd
00000070: 6051 093e dbc6 bf3c f2f6 6f3c 7c24 083e
00000080: 54e5 a53d e898 abbd d19d 183e 7a0c a93d
00000090: bf88 f33b b883 5b3b 7bcb d7bc f5c7 4a3d
000000a0: 2f0f c63d f560 06be 5cdb 5c3d 2cf2 d1bd
000000b0: 4459 aebd 98fc cfbd 58df 99bc 7548 663d
000000c0: 7991 313d f572 d5bd 7d6a 2fbd 6e27 babc
000000d0: aa58 1f3d 2545 023e 90f5 043e 3d0e 673d
000000e0: 7faa 173a 0769 7c3d 9711 c03d 0e26 8c3d
000000f0: 5341 dbbd 80af eabd 2e2e e5bd ff99 c3bd
00000100: e836 86bd 4b38 3c3d 58a8 e03d c304 00bd
00000110: cb64 b4bd 0064 253d aea8 a63d b7d9 4bbd
00000120: 9cf2 afbd e4aa e1bd 0399 68bd d53d b83d
00000130: b7db 99bd 0578 333e 1aea e3bc f55b 9abd
00000140: d00f 34bd 3b04 b9bd 654c 88bc d56d 7a3d
00000150: ebdd e83c 07e1 2f3e 727f 833d ff60 84bd
00000160: de7e 5cbd fece 9f3c ea0d cd3d 50bb 19be
00000170: dae4 a7bd 5ef3 01bc 03be b5bd c3c3 2fbc
00000180: 3459 afbb d5ad 83bc 79b1 cf3d e8fd b7bd
00000190: 52a2 a43d 1159 15be 3a58 d63d 95fa 2fbc
000001a0: a833 9fbd e75c 493d 543d ae3d c05b ecbd
000001b0: 975d dc3b d70e 033d 3e7d 04be d2ba ff3d
000001c0: 9023 1abe 4b1c b53c 325d b03d 490e 8a3d
000001d0: 6bc6 a3bd 99c1 9abd e376 d83d 5fac e1bc
000001e0: 2a98 663c 0bf4 3f3d a4eb 273d adc1 aabd
000001f0: 39e3 10bd f58e 32be 310f efbd 5aa9 42bc
00000200: c23f 453b 8e75 2c3e 66de d73d 12be 5f3d
00000210: 8c2d c83d 0b37 2fbc 454c 8dbc 01bd babd
00000220: 4313 0fbd bf07 a23c 677a 08bd c9d1 b93c
00000230: b62a b6bb 5316 1bbe ad64 b7bd 660f a4bd
00000240: 893e abbc 2792 b23c 0c08 0dbd 1e41 353e
00000250: 19e9 ec3d f32a 4c3c 4302 eebd a07b a53c
00000260: 605e 2dbd 82b7 1a3e d01f abbd dfb2 d23c
00000270: 454a 003e 3867 063e 5294 913d b51c f03d
00000280: 03e0 f3bd 241c db3d 8462 9f3c 6aa6 8d3d
00000290: c4ba 8ebc ffbd 56bd 8904 babd 7a02 d83d
000002a0: 1a04 2ebc 7c89 a3bd 7c12 cc3d 9a69 85bd
000002b0: 2d5b be3d 8450 1ebe 693c dfbc aa33 793d
000002c0: 6e1f 92bd a9b1 a93b ce89 283c 86c5 c43a
000002d0: 98b5 ce3c fc4b ef3d 7ded b43d c297 ef3c
000002e0: c4ab 05bd 651c 363d a12c a53d 0d27 42bd
000002f0: e65d 9c3d 38bc 1a3e b21e a6bd 333f 8d3d
00000300: dafa 85bd e85a 82bd 1dbd 81bc dd15 223e
00000310: 92a8 54bb 9684 463d 6dba 92bd b61c 01be
00000320: 8303 81bd 5a0b bcbd 2e12 4c3d 4ff6 013e
00000330: 4c04 18be f35c 183e 9270 b33d 1727 9dbd
00000340: 88b4 20bd 92ee e93d 0609 49bd 0768 dd3d
00000350: 774f 7f3c 03a7 813d ed6b 703e a846 70bd
00000360: f7cb 0ebe 9a01 97bd f4cf a13d 556b 943c
00000370: f0a4 65bd 7f24 8dbd b0ba 783d 1aac f7bc
00000380: da19 36bb 3b59 8c3d dc42 c43d 703d 963c
00000390: 1c76 0bbd 9a61 2bbd fe0b c2bd ccbb 0dbd
000003a0: f937 eb3c 3b84 873d d941 51bd 065b 88bb
000003b0: c455 ad3d 946b 603d cfb0 573d 3d88 c73d
000003c0: 39d1 e93c 4839 2bbe 61ce 8a3d a0d3 863d
000003d0: b6b5 923d c404 41bc 66d5 43bd 75e9 0dbd
000003e0: 6a46 0ebc df8e debd cd09 493d 97b7 adbd
000003f0: 5c26 05bd 4294 a93c 9890 ac3c 64a2 91bc
-0.13169728 0.03712588 0.029502455 0.040680308 -0.12589172 0.021166129 6.532656e-05 0.029201044
0.09667733 0.07865826 0.06497343 0.06177745 0.06688319 -0.10980355 0.09195188 0.015712067
0.077349424 0.022085037 -0.0494785 0.004371857 0.00832068 -0.0033537564 -0.15334457 -0.02114149
-0.11726792 0.12057253 -0.02945027 -0.085183 0.13409948 0.023410251 0.014646279 0.13295168
0.081003815 -0.08378774 0.14903952 0.08254333 0.007432073 0.0033495259 -0.026342144 0.0495071
0.09670865 -0.13122924 0.053920135 -0.10251269 -0.0851312 -0.101556 -0.018783256 0.056221444
0.043351624 -0.10422317 -0.042826165 -0.02272388 0.038902916 0.12721689 0.129843 0.056410063
0.0005785599 0.0616236 0.09378355 0.06843196 -0.10705819 -0.11459255 -0.11190449 -0.09550857
-0.06553441 0.045952123 0.10969609 -0.03125454 -0.08808287 0.04037857 0.08137642 -0.049768176
-0.08591196 -0.11018923 -0.05678655 0.089961685 -0.075126104 0.17526253 -0.02782159 -0.07537071
-0.043960392 -0.0903401 -0.01663799 0.0611399 0.028426131 0.17175685 0.06420793 -0.06463813
-0.053831927 0.019507881 0.100124195 -0.1501286 -0.08197947 -0.007931558 -0.088741325 -0.010727826
-0.00535121 -0.0160741 0.10141272 -0.08983976 0.08038773 -0.14584757 0.10466047 -0.010740896
-0.077735245 0.049160864 0.08507791 -0.115409374 0.006725024 0.031996574 -0.12938401 0.12486805
-0.15052629 0.022108218 0.086115256 0.06741006 -0.079968296 -0.07556457 0.10569551 -0.027548013
0.014074365 0.046863597 0.04099621 -0.08337722 -0.035372946 -0.17437346 -0.116728194 -0.011881197
0.0030097817 0.16841719 0.10540466 0.054624625 0.097743124 -0.010694276 -0.017248282 -0.09118081
-0.03493048 0.019779084 -0.033319857 0.022683041 -0.0055592908 -0.15145235 -0.08954749 -0.080107495
-0.020903843 0.021798206 -0.034431502 0.17700621 0.11567897 0.012461412 -0.11621525 0.02020055
-0.04232633 0.15109065 -0.08355677 0.025720058 0.12528332 0.13125312 0.07108368 0.117242254
-0.11907961 0.10698727 0.019456156 0.069165066 -0.017423041 -0.05242729 -0.09082896 0.10547347
-0.010621095 -0.079852074 0.09964463 -0.065142825 0.09294734 -0.15460402 -0.027250485 0.060840286
-0.07134901 0.0051786494 0.010286761 0.001501248 0.025233075 0.11684415 0.0883436 0.029247168
-0.03263451 0.044460673 0.08065153 -0.047400523 0.07635097 0.15110862 -0.081113234 0.0689682
-0.06541987 -0.06364995 -0.015837247 0.15828653 -0.0032449109 0.048466288 -0.07164464 -0.12608609
-0.06299498 -0.09181853 0.049822025 0.12691616 -0.14845389 0.14879207 0.087617055 -0.076734714
-0.039234668 0.11422457 -0.04908087 0.10810857 0.015582911 0.06330683 0.2347867 -0.058661133
-0.13944994 -0.07373352 0.07900992 0.018117586 -0.0560655 -0.06891727 0.060724914 -0.030233432
-0.0027786405 0.06852957 0.09583065 0.018339843 -0.034048185 -0.041841127 -0.094749436 -0.034602925
0.028713213 0.06617018 -0.051088188 -0.0041612415 0.08463624 0.054790094 0.052658852 0.09742782
0.028542148 -0.1672107 0.06777645 0.06583333 0.07163565 -0.011780921 -0.047810934 -0.03464647
-0.00868378 -0.10867094 0.049081612 -0.084822826 -0.032507285 0.020700578 0.021065041 -0.01777763

lstm.weight_hh_l1 f4 [300, 75]
00000000: 651f b83a 1741 d6bd 43be 65bc b2ba 973d
00000010: 2385 373d 3b15 6ebd 691b 193d 48f0 5f3d
00000020: 4755 623d 1ccb 0c3e 7d68 733d a2cc fe3d
00000030: 191d b43d 87e5 77bd 29cc 9b3d 699d 903d
00000040: 1e61 de3d ded1 d43c a71e c6bd 607f dd3d
00000050: 77a2 e6bb e3e7 81bd 0d11 633c ec68 0f3d
00000060: e943 45bd 804f e03c 1a9b dabb e84f 2a3d
00000070: 9a52 f3bd f5a5 0f3c 88e6 b3bd 6f7f 2c3d
00000080: 501f b03d 51a7 aabd 001b eebd 4b4e b9bc
00000090: 0362 e13c 625b 863d 23ac 2f3d 08e9 fa3c
000000a0: 322f ddbb b7f5 63bd c428 8b3d d6b2 013c
000000b0: 5fa4 acbd 7165 473d 6f5c da3d dcfb 283d
000000c0: 0c65 2ebd 8a3c 1f3e 58ab e7bd ef70 893d
000000d0: b570 693d 5f5b b73c ea9f a1bd 1b49 583d
000000e0: ae0c bb3b ee1a a53c 61a0 fd3c 62dc 833b
000000f0: 021b 3d3d c784 cc3d e9f7 b6bd b190 6bbd
00000100: e691 61bc d4d7 a3bd 42d3 10bd c50b 9cbd
00000110: 18c6 4b3d 1ec0 a73d 0c1b ccbd 9378 6a3d
00000120: 850d 343d 056b cbbd 1aff d9bd 8fcf 65bd
00000130: 95a6 a43c 760d 0bba 4360 48bd f85f adbd
00000140: 213b 17bc 77d7 fb3d fad9 5bbd 75b2 dcbb
00000150: 9153 b2bd 970c 9a3d 84b6 003e d067 c83d
00000160: 4bba 3e3d 5cb2 e1bd 348c cd3c b4f1 f3bc
00000170: 1cf4 abbd 4732 183d c216 003c 03a4 043e
00000180: 080f 6dbd aff3 c13b 1681 c33d 1295 e9bd
00000190: 9a1e 973d cdf7 c73d aa7d 503c ea8e 443d
000001a0: 1583 ff3c 17c9 0fbe 4673 b3bc 48d7 673d
000001b0: 5e78 3abc 1992 93bd 6231 0cbd 00c1 8c3d
000001c0: 9f55 223d 698b cebc 4c29 db3d 2543 02be
000001d0: 5d36 0dbe e820 27bd 02fb 31bb c6cd a2bb
000001e0: 5435 7abd a4d4 043b f7ee 01be a8b7 2b3d
000001f0: 3d4c 1c3e f4d3 61bd c56c be3b b64f be3b
00000200: fec4 853d 6412 9bbc d92c e43d 7128 bcbc
00000210: 87ac 5dbd 785a 0e3e 1eee b43d 4220 c23d
00000220: 18b8 7cbd 6182 c63d 6be2 44bd 7a2d 8b3b
00000230: ea52 723d 6c5c d9bb a6a3 e43d 7164 d03d
00000240: d446 d4bc ad5d ddbc a3e9 7b3d bf58 ebbc
00000250: 7cf1 a8bd 7a9f 93bd 6bde 9fbd 6502 513d
00000260: d7da a6bd e1b0 9abd 98b0 e7bc 1488 b0bb
00000270: 98da 5dbe d5ff e7bd c92e 45bd c53b 513c
00000280: b9d1 68bc e629 95bd bec7 eabd 608d 893d
00000290: 5396 d63d 2855 debd 591f 7fbd 50f4 5f3d
000002a0: 5292 dbbc 5ea2 31bd 78b9 d73d ba2b d93d
000002b0: 7711 863d 274f b63d 5c18 b43d 3fd5 28bd
000002c0: 8f29 eabd f271 2a3d 5699 b23d bd72 243d
000002d0: 072a ecbd defa 2f3e e584 3abd bfc1 b2bd
000002e0: f187 e2bd 10ce f43d 8421 82bd 3b23 4e3d
000002f0: 2db4 82bd 4745 cf3d 2d28 cb3d d5fd 913c
00000300: 0122 1c3e 8a54 0cbc 301d 083e 1899 28ba
00000310: 78d4 dcbc e6ff e5bc 7d5e 8abb 464c 233e
00000320: a606 c3bd 3fed dabd b4ac 92bc 6c2d 0d3e
00000330: 2575 d43d 40a9 ea3c d464 c7bd 805a 073d
00000340: 2b46 79bd ec0d c53b 7915 1bbc a98d b4bc
00000350: b5ef 4b3d 626a c7bc cc79 aebd 5cb0 cabd
00000360: 0226 093d 0c76 b33a b6f2 2c3e 61e6 0d3e
00000370: 838a 363d 96e3 cd3d 6b7b 67bd 86c7 c83c
00000380: a04a e7bd f303 d0bd 045b fdbd 9629 c43d
00000390: 174f cf3d 0515 b3bd b8d3 713a cb4e ca3d
000003a0: 3d8d fabd 1498 a8bc ae47 993d 1e6d a0bd
000003b0: 778c 10bd 6ec7 8f3d 61f6 b63d 638e aa3c
000003c0: 61db 593d df78 05be 2adf a2bd e04e 5dbd
000003d0: 01e1 08bb 9a3e 4a3d 2724 4e3d af78 ebbd
000003e0: 6c8a 4e3d ccd7 a6bd d473 e73d ee81 013e
000003f0: 754d ba3d a7d5 c53c f86e 9a3d 765d fdbd
0.0014047442 -0.10461634 -0.014022413 0.07408656 0.044804703 -0.058125716 0.037379656 0.05467251
0.055257108 0.13749355 0.05942582 0.12441374 0.087946124 -0.06052163 0.076073 0.070612736
0.108583674 0.025978979 -0.09673815 0.108153105 -0.0070384103 -0.06343057 0.013859046 0.03501217
-0.048160467 0.027381659 -0.0066713216 0.04158011 -0.118809894 0.008767595 -0.08784205 0.042113718
0.085997224 -0.08332694 -0.116262436 -0.02262034 0.027512556 0.06560399 0.04288877 0.030628696
-0.006750011 -0.055654254 0.06794885 0.007916173 -0.08429789 0.048680726 0.106621616 0.041255817
-0.042576835 0.15550438 -0.11311978 0.067109935 0.05699225 0.022382436 -0.07891829 0.052804094
0.0057082986 0.020154443 0.030960264 0.0040240744 0.046168335 0.09986263 -0.08934004 -0.057511035
-0.013767695 -0.0800015 -0.03535772 -0.07619432 0.049749464 0.0819094 -0.09966096 0.057243895
0.043958206 -0.09932522 -0.1064436 -0.056106146 0.020098964 -0.0005304435 -0.048919927 -0.0846557
-0.009230406 0.12296956 -0.053674676 -0.006735141 -0.08707345 0.075219326 0.12569624 0.09785426
0.04656438 -0.110203475 0.025091268 -0.029778339 -0.083961695 0.037157323 0.007817926 0.1295319
-0.057875663 0.005918942 0.095461056 -0.11405386 0.07378884 0.09764061 0.012725273 0.047987856
0.031190434 -0.14041553 -0.021905553 0.056601793 -0.011381237 -0.072056 -0.034226783 0.06872749
0.039632436 -0.02521296 0.10701236 -0.12720926 -0.13790269 -0.040802866 -0.002715767 -0.0049683778
-0.061086014 0.0020268345 -0.12688814 0.041923195 0.15263458 -0.055133775 0.005811306 0.005807842
0.06531714 -0.018929668 0.111413665 -0.022968503 -0.054119613 0.13901699 0.0883448 0.09478809
-0.061699003 0.096928366 -0.04806749 0.0042473646 0.059161104 -0.006633332 0.11164026 0.10175408
-0.02591268 -0.027022207 0.06150211 -0.02872884 -0.082491845 -0.07208152 -0.07806095 0.051027674
-0.08147209 -0.07553268 -0.028282449 -0.0053873155 -0.21665418 -0.11328093 -0.04814032 0.012770598
-0.014210158 -0.07283382 -0.11463879 0.06716418 0.10477891 -0.10856086 -0.062285755 0.054676354
-0.02680317 -0.043367736 0.10533422 0.10604043 0.065463 0.08901816 0.08793709 -0.041218992
-0.11433708 0.041612573 0.08720653 0.040148485 -0.115314536 0.17185542 -0.045536894 -0.087283604
-0.11061085 0.11953366 -0.06354049 0.050326567 -0.06382022 0.101206355 0.09919772 0.017821232
0.15247346 -0.008565078 0.13292384 -0.0006431504 -0.026956782 -0.028076123 -0.0042226897 0.15947065
-0.095227525 -0.10689782 -0.017904617 0.13786858 0.10373906 0.028645158 -0.09736028 0.033045292
-0.060857933 0.0060136225 -0.009465569 -0.022040205 0.04978915 -0.02434272 -0.08519325 -0.09896919
0.033483513 0.0013691797 0.16889462 0.13857414 0.04456569 0.10053174 -0.056514185 0.024509203
-0.112935305 -0.10157003 -0.123708755 0.095782444 0.10122507 -0.087442435 0.0009224969 0.0987831
-0.1223397 -0.020580329 0.07484375 -0.078333125 -0.035290208 0.0702046 0.08933712 0.020819848
0.05318773 -0.1303439 -0.079527214 -0.0540303 -0.0020886066 0.049376108 0.050327446 -0.11497628
0.050424978 -0.08146629 0.11301389 0.1264722 0.09096805 0.024149729 0.07540697 -0.12371342

lstm.bias_ih_l1 f4 [300]
00000000: 421a 933d ee96 ca3d 2a85 c43d db00 283d
00000010: d9d0 3fbd abb4 c0bd 8007 a3bd b465 473d
00000020: e2dc 983d 58f0 343d 2a5b ebbd 9ad8 9fbd
00000030: 5e8c 43bd 4b83 453c fcbd 81bb e018 81bb
00000040: 5492 dabb 5d05 dcbb 9562 0ebe a583 413c
00000050: d99d c9bc 4163 89bb d853 d3bd 5ebb 8fbc
00000060: eacd 7dbd e124 f1bd 7b40 8f3d e96d 58bc
00000070: 8d84 623d 7265 643d 4918 47be 5b1e c4bd
00000080: 8217 01be da7f f0bd 483d 293d ae44 9e3d
00000090: f424 303c 1f0b f0bd 01f8 c3bd fd54 07be
000000a0: b608 0abe 1b7c eabd 4232 e0bd 00eb d03c
000000b0: 9a6f dcbd decf 03be c6d5 493c 2547 1abd
000000c0: 81ce c1bd a1b5 2cbd fd83 c83c 7048 803d
000000d0: 05b4 eabd 52f2 c5bc 15ad e6bd f244 1abe
000000e0: d12d 7b3c 53cd 243d e74c b7bd f044 83bd
000000f0: 0401 eabc fbad 713d 3c9f 52bd 5c24 b6bc
00000100: d76b e5bc 65d8 7bbd d4fc f63d f8f7 343d
00000110: 1a87 c23c 580a 5ebd bee9 3e3d d192 863d
00000120: 68b7 123d 9adc aa3c 6de7 35bd 470b 8abb
00000130: 005c 3f3d b100 883d 88a6 dbbd f84e 323d
00000140: a70d 7c3d 1117 3abd 5d0b a2bd 55e9 8cbd
00000150: 3067 c93d e9f6 e33d 8905 98bd 6274 1abe
00000160: 2087 193d 6a9a 31bd ee01 c23b b6af f33d
00000170: 852c e0bc 5589 16b9 b051 073b c26e 023d
00000180: 3878 30bd eaaa f5bd a21c 123d c340 83bc
00000190: 8b94 15bd 565b 62bd 956e 7f3d 7e7f 643b
000001a0: efd5 343c d6f3 47bd a400 bcbd 98d9 8a3c
000001b0: cb08 1bbe 722a 83bd 81d2 f4bc 4177 72bd
000001c0: c678 f6bd b0d3 4cbc a4b4 a8bc 8ee9 2c3d
000001d0: e295 263c 8db6 c8bd d1b6 20bd f630 13bb
000001e0: b6ce 9639 0f5b 72bc 2647 8e3d 876c 5a3d
000001f0: 73d8 a5bc bfa2 b9bd 7547 9c3c 2513 b8bd
00000200: 0b5d 07bd d75c 10be a8ba 99bd 16ad 023d
00000210: 181c fbbd c461 0bbe f6b3 61bd 362b 653d
00000220: f031 193c 337a 673c 7739 fc3c dcd8 913d
00000230: 2f75 8ebd 0be9 ec3d 4758 dc3c cd2d 9e3d
00000240: 54b8 18be 2787 d3bd eadf 77bd 7128 65bd
00000250: f680 8dbd f866 07be 5585 debd 6349 a83d
00000260: cb83 2b3d a347 983d fc93 77bd 5dce 61bd
00000270: cf3c eabc f92e bf3d b0a0 18bd 458b fcbd
00000280: a064 853b 95b5 13bd 332e 12bc 4fed babd
00000290: 6c9c 76bc d38e 853d 1082 b03d d493 3a3d
000002a0: b7e9 9c3d 04e1 73bc c7cf 9d3d 4400 7f3d
000002b0: e05a 0e3c d41c 14bd 39b3 ba3d 36ee 463d
000002c0: 077e 093d b56d 0f3d 66b9 123d dca2 a1bd
000002d0: 6e8a 6c3d 8f69 373d 1c4f 813d f118 283d
000002e0: 9055 213d b402 933d 8531 de3c cae5 743d
000002f0: fffa 8d3d 35c1 323d b446 bebd 2995 65bd
00000300: 66ef a83d 1d06 d9bd 060f 7bbd d464 893d
00000310: d281 0d3d 6e94 7ebc 8ca2 be3d 3a59 7f3b
00000320: edac ea3d c8b2 5dbd ba82 a6bc f56c 9c3d
00000330: e3da bbbb 5091 9c3d 3860 8f3d eec6 31bc
00000340: e002 283d 4588 d43d 9da7 6d3b 36f7 dabc
00000350: 9bb0 d83d e7e8 a13c cdfc ecbc 7776 c9bd
00000360: 4ceb ffbc e884 c3bc e89d 03bc 3ab5 6c3d
00000370: 6984 24bd 7fda cabd 9100 a6bd 78e2 903d
00000380: 7b6f bd3c 2108 dabd 6780 99bd c065 0fbd
00000390: bd09 63bc 7936 2ebd d107 f2bc feec b2bd
000003a0: 28c8 3dbd bff4 483c 54e9 99bd 4aee 2b3d
000003b0: f2f1 c83d 52fc 4dbd 3816 0fba 70ee 7c3d
000003c0: 05d5 c9bd 6f10 b53d 21b8 0dbd 0909 13be
000003d0: 86cc 39bc c34c 973c 906c 91bd 45a2 f53c
000003e0: 46be 72bc dc90 b03d 8a61 d5bd b0e8 2fbd
000003f0: 57e9 a03c 326a 2abd 3788 8339 dc1c 07be
0.07182743 0.09892069 0.095957115 0.04101644 -0.046830032 -0.0940946 -0.07960415 0.048680976
0.07464005 0.044174522 -0.114919975 -0.07804985 -0.047741286 0.012055228 -0.0039594155 -0.003939733
-0.0066702757 -0.0067145065 -0.13904794 0.011811172 -0.0246114 -0.00419274 -0.10318726 -0.017545398
-0.061963953 -0.11774612 0.069947205 -0.013209798 0.05530219 0.05576081 -0.19442858 -0.09576102
-0.12606624 -0.11743136 0.041318208 0.07727943 0.010750998 -0.11720871 -0.09568787 -0.13216014
-0.13479885 -0.114494525 -0.10947086 0.025502682 -0.10763474 -0.12872264 0.012319034 -0.037665505
-0.094632156 -0.042165402 0.024477 0.06263816 -0.11460117 -0.024163399 -0.112634815 -0.15065363
0.015330748 0.040234875 -0.08950215 -0.06409633 -0.028564937 0.05900381 -0.05142139 -0.022234134
-0.028005524 -0.061485667 0.12059942 0.044181794 0.023746062 -0.054209083 0.046609633 0.06570972
0.03581944 0.020857144 -0.044410158 -0.00421277 0.046718597 0.06640757 -0.10725123 0.04353234
0.061536457 -0.045432154 -0.079123236 -0.06880442 0.098341346 0.11131079 -0.07422931 -0.15083459
0.03748238 -0.04336015 0.00592064 0.118987486 -0.027364979 -0.00014356275 0.0020648055 0.031843908
-0.0430834 -0.1199549 0.035671838 -0.016022092 -0.036518615 -0.055262886 0.06236132 0.003486603
0.011037334 -0.048816524 -0.0917981 0.01694946 -0.15140073 -0.0640458 -0.029885532 -0.05919576
-0.120347545 -0.012501642 -0.020593949 0.042214923 0.010167571 -0.09800444 -0.039236847 -0.0022459603
0.0002876424 -0.014792218 0.06947164 0.053326156 -0.020244813 -0.090642445 0.019077042 -0.089880265
-0.033047717 -0.14097916 -0.07506305 0.03190335 -0.12261218 -0.13611513 -0.055103265 0.055949412
0.009350285 0.014128256 0.03078912 0.07121441 -0.06955945 0.11567887 0.026897563 0.077235796
-0.14914066 -0.10328513 -0.060516275 -0.05594677 -0.06909363 -0.13222873 -0.10865275 0.082171224
0.041873734 0.074355386 -0.060443863 -0.055128444 -0.028593449 0.09335131 -0.03726262 -0.12331251
0.0040708333 -0.036061842 -0.008922148 -0.09127294 -0.015051942 0.06521382 0.086185575 0.045551136
0.07661765 -0.014885191 0.07705646 0.062256113 0.0086886585 -0.036160305 0.09116215 0.04856702
0.033567455 0.035016734 0.03582134 -0.07892391 0.057749204 0.044778403 0.06313917 0.04103941
0.03938824 0.0717825 0.027123222 0.059789456 0.06932639 0.043641288 -0.09290829 -0.056050453
0.08248787 -0.10596869 -0.061293624 0.067086846 0.034547634 -0.015538318 0.09308347 0.0038963095
0.11458764 -0.054125577 -0.020326007 0.076379694 -0.0057328804 0.07644904 0.07000774 -0.010850651
0.041018367 0.10377554 0.0036263235 -0.026729207 0.1058056 0.019764377 -0.028929139 -0.098370485
-0.031240128 -0.023867086 -0.008033253 0.05779002 -0.04016534 -0.09904956 -0.08105577 0.070744455
0.023124447 -0.10646082 -0.07495194 -0.035009146 -0.013857302 -0.042532418 -0.029544743 -0.08736609
-0.046333462 0.012265383 -0.07515207 0.041975297 0.098117724 -0.05028946 -0.0005458328 0.06175083
-0.098550834 0.08841025 -0.034599427 -0.14358915 -0.011340266 0.01846922 -0.07100785 0.029984603
-0.014815873 0.0862138 -0.10418995 -0.042946517 0.019642515 -0.041605182 0.00025087755 -0.13194603
