Notebooks/scripted_model_lstm_pytorch.pt (torch, 214653 bytes, 10 tensors)

weight_ih_l0 f4 [240, 18]
00000000: 2bcc 35bd ac50 5d3d cc16 e83d 8640 023e
00000010: 89ce da3d eadf af3d 9d79 073d 8016 133e
00000020: 89c9 3f3e 092e 1cbd fd78 343d f02c 34be
00000030: 39a8 103e 846e 02be 8771 113d 941b 143b
00000040: 3d07 dfbc ed54 95bd 93cc 133d 007c afbd
00000050: 0c4f ad3b 79e0 ae3c 452c 8e3d 4130 ec3d
00000060: c8cf b5bd 5d31 65bd de07 dc3d 3963 fbbd
00000070: de12 ac3d 42c1 17bd dd8b 323d dd38 89bd
00000080: 9642 0b3e bcda 7abd 8d26 cdbc 3303 123e
00000090: b1da 6cbd dd3f 06bd 1716 b2bd 17cb 20bb
000000a0: 6942 e8bb 2e2d bb3d 6561 2e3e 53e5 49bc
000000b0: 2d96 c73c 1ab9 7c3c f87e e2bd f46b c53c
000000c0: fbc8 463d a44f 853e ef74 59bd 1151 343e
000000d0: d4db c5bd 4da9 c9bc 61be 14be efec 5ebb
000000e0: 349f 12bd fc4d aabb 84b4 003e da3d 833d
000000f0: e918 45bc 2dbd b1bd 3e4a 923d a6b5 2a3e
00000100: f2ff c73c 4872 f1bd 009a a13d 3b85 53bd
00000110: 4873 a83d fd6c 88bd 5bbb 673d 944d 3e3d
00000120: 1bab 10be 4e66 3ebd 8445 fc3d 6e0f 843c
00000130: 2076 a1bd ad4a 9abd e46c 5dbc 23ba de3b
00000140: 4422 ce3d 3f1f 8cbd 5019 b8bd b164 2ebd
00000150: a409 6dbc 049b fcbd ad14 8f3d 0f46 c93b
00000160: 8e8f 2a3d ab0f 5bbd f4b0 2b3d 1fba 07bd
00000170: b61f f4bd 3658 be3c 8019 313d 4df5 da3c
00000180: bfa2 2dbe f78c 65bd 08f1 9b3d cb89 b83c
00000190: d5d6 a8bd b934 593d 6b72 0b3e 20cc 983c
000001a0: 920b 6abc 5d19 6fbc b59d d0bd 11ad 9f3d
000001b0: 8c32 e23d 3203 1fbe 215b 0e3e 32c0 ed3c
000001c0: ec31 a7bc d2b6 12bd 1b81 3abd 2f6d 5ebe
000001d0: 1f03 9e3c 07f4 7a3d 8d4b 2a3d 3a99 0e3d
000001e0: a333 a4be 2214 73be 4df4 923b 4577 143d
000001f0: 17b0 e9bb d8ef 203d 7397 29bd 5325 ddba
00000200: cec3 ecbd 3720 fb3d e3fb 9dbd 2b00 9f3d
00000210: 7f8e 60bd 5308 7c3d a1c4 9abd e353 733d
00000220: dd9b d7bd 8da6 48bd c988 19bc bfb2 82bd
00000230: 583d a43d e79c 5a3d 8409 2d3c 59f6 113d
00000240: 1069 193d 9202 19bd 6bb3 db3d 0c4a 24be
00000250: 2e8d c8bc 40de 713d 80a8 103e 4f1e 07be
00000260: 9238 0b3b 5d7e ba3d 18d1 41be bfeb 29be
00000270: 15d8 01be d11c 953c 6ab1 993d 009e 0f3e
00000280: e0c3 913d 09d6 f53d bb9c 3dbd 3d53 c0bd
00000290: 6d3c ffbd 7e20 833d 2d42 893d 3699 76bd
000002a0: 6c2a 583d ecda 50bd b0fc 87bc c663 c53d
000002b0: b29b c63d c592 333d 2686 36bc 4668 61bd
000002c0: 6555 903d bf8d aabd 9944 0fbe 88e1 20bd
000002d0: fea6 c8bd 2d4e 863d efe1 aabd e7ca 223b
000002e0: 324c 103e 9091 3bbc 9ccf ce3c 90f7 f7bb
000002f0: ead7 943d 0cbc 803d cb36 bdbd f9e5 54be
00000300: a4d7 2c3d 2d4b d7bd abe1 adbd 11ca c73d
00000310: 9889 843b cd5d 09bc a657 923d bc40 69bd
00000320: 7a9f 7cbd 63a7 43bc 2aa1 0b3d a590 21bd
00000330: 114f 143e 495f f23d 72ee 91bd 8342 d6bd
00000340: cc94 0bbe a771 e43b 70d6 a3bd afbb 193d
00000350: 67f6 253d 7214 3b3e ebe5 87bd c9cb 023d
00000360: 9caf 40bc 00d3 583d 7b3e 253e b8ba b4bd
00000370: 032a 8d3d 3ef8 0d3e af41 8f3d 6832 1bbe
00000380: 1c6a 863d 228c 9abd c3f3 be3d cabc 543c
00000390: 843d 36be 672e cdbd f94d 083e 7ba5 09be
000003a0: 2a17 303d ea8c 213e 1fa1 dbba fae5 26bd
000003b0: 671e c93d e78b 183d c177 fc3d 93ed 973d
000003c0: aab7 0a3e fb1f c9bd ab7e 853d a98d 2e3d
000003d0: b4f4 5fbd 705f a2bd b311 96bd 53c5 a53d
000003e0: bcc7 9f3d 8ebe bf3c f129 71bc db80 a23c
000003f0: 9882 68bd 05ff e43d 4d20 6abd 4d58 d5bd
-0.044384163 0.054032013 0.11332473 0.12719926 0.10683925 0.0858763 0.033074964 0.14364052
0.18729223 -0.03812984 0.044060696 -0.17595267 0.14126672 -0.12737471 0.03550866 0.0022599446
-0.027225131 -0.07291589 0.03608377 -0.08568573 0.005288964 0.021347271 0.069420375 0.11532641
-0.08877522 -0.05595528 0.10743688 -0.122747846 0.08402036 -0.03704954 0.043590415 -0.06700299
0.1359962 -0.061243758 -0.025042797 0.14259033 -0.057825748 -0.03277575 -0.086956196 -0.0024535113
-0.007087995 0.09139477 0.1702934 -0.012322742 0.024363602 0.015424991 -0.110593736 0.024099328
0.048531514 0.26037323 -0.053090032 0.1760905 -0.096610695 -0.024616862 -0.14525749 -0.0034015735
-0.03579636 -0.0051972847 0.12568861 0.064082816 -0.012029865 -0.086786605 0.07143067 0.16670856
0.024414036 -0.117893755 0.07890701 -0.05164073 0.08225113 -0.06661413 0.05657516 0.046460703
-0.14127772 -0.046484284 0.123179466 0.016120639 -0.07883859 -0.075337745 -0.013514731 0.0067970916
0.100651294 -0.06841897 -0.08989203 -0.042576496 -0.014467631 -0.123342544 0.069863655 0.006142385
0.04164081 -0.05348174 0.041916803 -0.033136483 -0.11920111 0.023235422 0.04323721 0.026728297
-0.16956614 -0.056042638 0.076143324 0.022526642 -0.08244101 0.053028796 0.13617866 0.018652022
-0.014284985 -0.014593449 -0.1018633 0.07796682 0.11044797 -0.15528563 0.1390195 0.02902231
-0.020409547 -0.035818882 -0.04553328 -0.21721338 0.019288598 0.06126788 0.041575957 0.034814097
-0.32070646 -0.23738149 0.0044846893 0.036246557 -0.0071315872 0.039291233 -0.0414042 -0.0016872085
-0.11560784 0.12262004 -0.07714059 0.07763704 -0.054823395 0.061531376 -0.07557035 0.059406172
-0.105277754 -0.04898696 -0.009370991 -0.06381749 0.08019513 0.05337229 0.010561351 0.035635326
0.03745371 -0.037355967 0.10727581 -0.16043872 -0.024481382 0.059049845 0.14126778 -0.13195156
0.0021243435 0.09106133 -0.18927419 -0.16593836 -0.12680085 0.018202217 0.07504542 0.14025116
0.07117438 0.120037146 -0.046292048 -0.093908764 -0.12462697 0.06402682 0.06702075 -0.060204707
0.05277483 -0.05099003 -0.016599983 0.09638171 0.09697665 0.043841142 -0.011140382 -0.055031084
0.07047538 -0.08327817 -0.13991012 -0.039277583 -0.09797476 0.065578796 -0.08343875 0.0024840178
0.14091566 -0.011448279 0.02524548 -0.0075673535 0.07267745 0.06285867 -0.092389666 -0.20790853
0.04219784 -0.105123855 -0.084903084 0.09755338 0.0040447228 -0.00838418 0.07145624 -0.0569465
-0.061675526 -0.011941764 0.034089245 -0.039444584 0.14483286 0.118345805 -0.07125558 -0.10461905
-0.1363098 0.006971556 -0.07999885 0.037532505 0.04051819 0.18269518 -0.0663565 0.031932626
-0.011760619 0.0529356 0.16137116 -0.08824676 0.06892779 0.13864228 0.0699495 -0.15155947
0.065632075 -0.075462595 0.093238376 0.012984464 -0.17796904 -0.10018616 0.13310994 -0.13442032
0.04299084 0.1577641 -0.0016756392 -0.040746666 0.09820252 0.037242796 0.12327529 0.074183606
0.13546625 -0.09820553 0.065183006 0.042615566 -0.054676726 -0.079283595 -0.073275946 0.08094277
0.07801768 0.023406293 -0.014719472 0.019836834 -0.05676517 0.111814536 -0.05715971 -0.10417233

weight_hh_l0 f4 [240, 60]
00000000: bc21 a53d 08f8 0b3d 8ee4 5e3c 57e3 563d
00000010: 3a39 343d fefc fb3c 7b32 8b3d b388 d03d
00000020: d012 083e ac9b b33d fd6a 33be f7dc 34bd
00000030: bc1c 24bd 1e22 383e d3f5 873d 6017 11bb
00000040: 7892 e2bc b38b 203c 903e 45bc b34e a43d
00000050: d85b 23bd 501e 653c b8a9 ccbd 0f75 9e3d
00000060: 2e53 053e 6c8c 38bd 36bb 8b3c 2752 26be
00000070: 21e4 48bd 7ec9 c5bc fece 933b 4987 033e
00000080: 15cf 403e dfc3 b2bc fc9c adbd 61dd 2c3c
00000090: 95bc 33bd 5165 ac3d ab79 363d 223d 53bd
000000a0: d311 86bc a07a c73d 69a6 bfbd ce0c ba3d
000000b0: 2a19 423c f3c1 d1bd 560b dfbd 8485 5cba
000000c0: 97c7 0a3e 9029 e83d 7d65 d1bc a1f4 e03d
000000d0: d6aa e93d 1f65 d43d a8ba acbd 9628 7fbc
000000e0: 9606 8c3d e136 5f3d 7d18 f73c afe6 6abd
000000f0: 2f59 fb3c 3db9 a6bc a7e1 06bd 910e c9bd
00000100: e82b 0d3e 9251 2f3e 02a4 10be 6528 ba3d
00000110: 7917 1d3c 60c6 543c baab 21be a946 b73d
00000120: e740 10be 58b7 a83d 49e6 fb3d 6fff 9dbd
00000130: a797 34bc 57bd efbc 7e97 9c3a 6a97 7d3d
00000140: b119 513e 80bf bfbc fbf0 adbd 1140 a93d
00000150: 3a86 2dbd af19 76be 1699 bb3c f835 be3d
00000160: 8093 d9bd d661 863d 5cde bebc a5ff af3d
00000170: 4ccf 393d c483 7ebb 373f 1b3c 0f0b a0bd
00000180: 78a7 27bd 4654 e0bd d1f5 2c3e 0224 543d
00000190: 59ee 2abc 6ee6 bebd d433 983d 7bda b2bb
000001a0: e54a 103e 3045 b4bc c446 a43d 3d08 563c
000001b0: 17f5 ccbd 7e1e 153e b166 b5bd 00a6 09be
000001c0: 7e3d 983d f9e8 ee3d 8a97 2d3d 820a c43b
000001d0: ee31 d73c 482f 27bd 3c31 8f3d f63b aebd
000001e0: 9a1f 30be 081a c8bd 85a4 39bd 154d f3bb
000001f0: 98f2 c9bd 5051 6c3c c653 50bd 75d3 a2bd
00000200: d1b1 b73d 7eda ddbd f470 9fbb 324d ab3c
00000210: d775 24be 4e4e 033d 5c0b e23c 79cd 36be
00000220: ab00 75bd 2973 1a3c 1366 e83d 3f1f aebd
00000230: a776 fb3c feeb 10be 5fc3 39be 10d7 b2bc
00000240: b118 123e c7c7 c53d 50ff e13c 37a7 0bbe
00000250: fc87 99bd 3622 353e 209b f03d 030f 9a3d
00000260: c265 e1bd 5b3f 15bd d41c 723d 029d 7f3d
00000270: d39b 013d 9704 823e 1977 8b3d b925 a5bd
00000280: 6b9e 8c3d 3506 1a3e 99c6 8dbb 7239 253e
00000290: 2996 e73d 4da0 2cbe 1536 02bd 8398 84bd
000002a0: 843f 7cbd 9174 1fbe ef7a 94bd 1fd9 ebbc
000002b0: 2b0f 21bc b1e7 8cbd 4f60 32bc 7f72 463e
000002c0: dced dd3d 68e5 5e3e 144a d4bd 6373 46bd
000002d0: d90a 39bd 77b4 1bbe 7d1b dfbb b133 e73c
000002e0: 7a76 c13d a112 063d e4c8 22bd 5206 22bd
000002f0: 4c0a 123e 6e48 43bd 99a1 a03d cb1e 8cbc
00000300: e334 0a3e e968 bc3d 7d06 8cbc df7f 6dbd
00000310: 3e22 eabc 29de 25bd 17e3 0fbe 5de6 093e
00000320: 641e 083e 1bc3 673c 09d0 323e 160b 493d
00000330: 1ed4 0abe 97d8 833c e253 5fbe 2388 8ebd
00000340: a273 893d fc14 84bd 97b7 e83c 7f31 4b3d
00000350: 5b89 0a3c 1ecc 8e3d 72ec 39bd 20ae 173c
00000360: 3b95 233d aa62 fcbd 3569 0cbd d6ee eabd
00000370: a0e2 8f3d ef56 863c da2e 53be 1a8e 1a3d
00000380: 0c01 18bd de46 91bd 17e5 0fbe e142 4b3d
00000390: 9d3c 78bc b52c f63c 2ab5 993d 814e 303c
000003a0: 32c0 503d 3c99 9dbd 4866 12be b4bb d0bd
000003b0: 3427 5a3d 3ef1 9fbd 2038 21be d0cb 9cbd
000003c0: 4307 4e3d bf7e eb3d 4ac6 3c3e 16f0 b43d
000003d0: 44e0 353d e716 da3d 724a ab3d 3537 fc3d
000003e0: b5b1 bfbc 4a98 823d 319a b23b 26d0 34be
000003f0: f16f 50bd 366d 203e 49fa a63d 5755 15bc
0.08063075 0.034172088 0.013604296 0.052462902 0.043999888 0.030760285 0.06796738 0.10182323
0.13288426 0.087699264 -0.17521282 -0.04415604 -0.040066466 0.17981765 0.06638684 -0.0022139177
-0.027657732 0.009798932 -0.012038842 0.08022823 -0.03988251 0.013984278 -0.09993309 0.07737171
0.13020012 -0.04505579 0.017057043 -0.16242276 -0.049045686 -0.02414393 0.0045107594 0.12844576
0.18828996 -0.021821914 -0.08477208 0.010550828 -0.043881018 0.08417762 0.044549625 -0.051571973
-0.016365921 0.09740186 -0.09357912 0.090844736 0.01184682 -0.10242071 -0.10890834 -0.00084122294
0.135527 0.113360524 -0.025561089 0.10984159 0.114095375 0.1037085 -0.08434039 -0.015573641
0.06837194 0.054495696 0.030163044 -0.057348903 0.030682174 -0.020352 -0.032930043 -0.098172314
0.1378628 0.1712096 -0.14125064 0.09089736 0.009588116 0.012986749 -0.15788165 0.08949024
-0.14087258 0.08238095 0.12299783 -0.07714736 -0.011022485 -0.029265089 0.0011947004 0.061911978
0.20419957 -0.023406744 -0.08493229 0.08264173 -0.042364337 -0.24033235 0.022900146 0.092876375
-0.106238365 0.065616295 -0.023299389 0.08593682 0.04536371 -0.0038835863 0.009475521 -0.07814609
-0.040931195 -0.10953574 0.16890647 0.051792152 -0.010432803 -0.09321295 0.074317604 -0.005458174
0.1409107 -0.022005647 0.0802131 0.013063488 -0.10007685 0.14562413 -0.088574775 -0.1344223
0.07433604 0.1166553 0.042380847 0.005982698 0.026268926 -0.040816575 0.069918126 -0.085075304
-0.17199555 -0.0977059 -0.045322914 -0.0074249604 -0.09860724 0.014423683 -0.050861143 -0.079504885
0.08969463 -0.1083269 -0.00486576 0.020910833 -0.16060577 0.0320571 0.027593307 -0.17851819
-0.05981509 0.00942687 0.11347594 -0.085020535 0.030696226 -0.14152524 -0.18140934 -0.021831065
0.14267232 0.09657245 0.027587563 -0.13638006 -0.0749664 0.17688832 0.11748338 0.075223945
-0.11005737 -0.036437374 0.059109524 0.062405594 0.031642746 0.25394127 0.068098255 -0.08063836
0.06866153 0.1504143 -0.004326653 0.16135195 0.11307938 -0.16858025 -0.031789858 -0.06474402
-0.06158401 -0.1557181 -0.0725001 -0.028790055 -0.0098302765 -0.06880129 -0.01088722 0.19379614
0.10836384 0.21767199 -0.10365692 -0.048449885 -0.04517636 -0.1520556 -0.006808697 0.02822289
0.09446426 0.03273261 -0.039742365 -0.03955681 0.1426174 -0.047676496 0.07843322 -0.017104527
0.13496737 0.091996975 -0.017092938 -0.057983276 -0.028580781 -0.04049507 -0.14051472 0.13466783
0.13292843 0.014145638 0.17462172 0.049082838 -0.13557479 0.016094489 -0.21809343 -0.0695956
0.06711508 -0.06449315 0.028407855 0.04960775 0.0084556 0.06972526 -0.045391507 0.009257823
0.03993724 -0.12323506 -0.03428002 -0.114713356 0.07025647 0.016398875 -0.20623341 0.037733175
-0.037110373 -0.07093595 -0.14052235 0.049624328 -0.01515117 0.030050615 0.075052574 0.010760904
0.05096454 -0.07695243 -0.1429683 -0.101920515 0.053260043 -0.07809685 -0.15744066 -0.07656062
0.050299894 0.11498784 0.18435016 0.08834855 0.04440333 0.106488995 0.08363809 0.123152174
-0.023400167 0.06376703 0.00545051 -0.17657527 -0.050888006 0.1566666 0.08153207 -0.009114585

bias_ih_l0 f4 [240]
00000000: 3377 8a3c 99fd c3bd a8ca d9bd ad24 e4bd
00000010: b468 d83d fc38 c3bc a438 1abe 2d89 2a3d
00000020: 52ba 06bd a8fe 68bd 2440 13be 163a b13d
00000030: e243 a73c cb91 e3bd e8d1 83bd 1954 e0bd
00000040: 6fb3 4ebd 3d68 1a3e bf1d 1dbd ca47 e8bc
00000050: b6af ddbd d985 16be ea4c de3d 956f 03be
00000060: c368 0dbd 1144 fbbd ef55 7bbe e5f1 a7bd
00000070: 736c 4a3d 9511 8f3d b347 a83d 2fe1 42be
00000080: 9ec7 d23d bc61 bbbd 8d2e 0f3d 3762 21be
00000090: f287 04bd 69e8 44bd 2a75 b2bd d1d1 80bb
000000a0: 018a 933c 82d7 a1bd cd24 fabd bb86 0c3d
000000b0: 5ea7 e9bd 60e8 05be 381f 0ebe ba32 05be
000000c0: e2d1 9b3d df72 05be e434 44be 6e86 d2bd
000000d0: 3e7b a0bb d603 0fbe f3f6 f23a c327 0abe
000000e0: 8b94 31bd 03ca 1cbb e247 a13c 0252 47be
000000f0: 1d6f ce3c 6044 5dbd a59c 25be 52f7 16bd
00000100: 99ef 14be 3638 703c cf45 abbc ab60 0bbe
00000110: eab1 c73c c81e 643d f5d1 4abe c120 93bb
00000120: 93ce a7bd 9e24 ebbd 9b7d 52be 7c8c 2cbd
00000130: 286e d9bd 89dd 673d 4083 00be 4b1d 34be
00000140: 79ce 3ebd 9983 e7bd b199 ebbd f916 89bd
00000150: 2c54 b1bd 2f8a 5bbc 3597 c8bd b892 a53d
00000160: 1ac5 1dbb 7e2d 963d 0718 123e fd7f a9bc
00000170: 9cce f7bd ba53 86bd cb88 e1bd 74b9 dbba
00000180: 88cd 2ebc 5913 ba3d 93ef bf3c f5e2 d8bb
00000190: d414 9e3b 8c67 3dbc 9718 9abd ad1a 42be
000001a0: 2f42 cabc f314 a63d 2694 3abe 8e9e 08be
000001b0: a0e0 d63d ef41 833d 73ca f0bd c3dc eabc
000001c0: c4e9 683d b556 31bd 91bf f4bc 2d01 e53d
000001d0: 24e1 87bd 4900 9c3d 82dd eb3d d44a 7a3c
000001e0: ae95 423d bd27 67bc 2f95 cabc 203f 07bd
000001f0: c0a5 a43d be83 bd3d 4080 68bd f2b0 373c
00000200: 725c aebd 82a4 86bd afe2 103e 2d25 ce3d
00000210: abac d13d 9b74 c3bd 3a62 af3c f408 313d
00000220: fcb7 db3c 2209 893d 3310 7e3c 8871 96bd
00000230: 8197 5f3c 4f7c 893c 7809 dcbc f347 42bd
00000240: 10cd 753d 67e7 24bd ead3 cf3c fde4 333c
00000250: a919 0c3d b3f1 96bd 34a1 cd3c fe07 b4bd
00000260: 3e0b b3bd 2f5d 57bd 2cf5 94bc 177e 193d
00000270: e027 e9bd 954c 783d a41f c93b a883 9f3d
00000280: f3e7 e8bd 0b23 adbd 74ff 5d3d 860c cb3d
00000290: 4024 6cbb c782 5f3d 5201 12bd ed70 a53c
000002a0: ae13 923c fd46 aa3d d9d0 d3bc 9971 85bd
000002b0: 375d 3fbd 6c64 8a3d a867 69bd 4534 0b3e
000002c0: 4277 d03d ffa2 eabd ad2a 4dbb c2db fbbc
000002d0: f966 b3bc c228 97bd 159d 09be 9e70 cf3c
000002e0: 1d02 963d b174 9e3d e937 37bc 00ce 8bbd
000002f0: 9183 32be 6f2b 703a ddc7 073d 7780 aa3c
00000300: 5355 2abc a099 dc3d fde2 c0bd 81b2 e4bd
00000310: e274 29be e2ea b8bc 7b9f 63bd a9e4 193c
00000320: e918 ef3c b657 1cbe ad4e 32bd 6ea3 9dbd
00000330: 952a 4dbe 5972 15be 714d 1ebe b513 703d
00000340: 47b3 34be 8505 fdbd 2ce0 663d eee6 0bbe
00000350: 5bc6 ba3d baf6 4fbe fb0e dd3c 01e4 65bd
00000360: a625 29bd 37b8 babd 1b9a cebd fcb7 edbd
00000370: c9bb 18be b254 923d 7cba 99bd ce01 0dbb
00000380: 4706 10be 538d 55bd 0250 4ebc 752c 22be
00000390: 24fa 5ebd dc92 dabc cb43 4bbd 0283 b53c
000003a0: 57b1 23be 3906 2ebe 88be f13c 51bc c33d
000003b0: e3bf 03be c9a4 22bd 31dc 73bd 808e 2cbe
0.016902542 -0.09569854 -0.10634357 -0.11139808 0.105668455 -0.023830883 -0.15060669 0.041634727
-0.032892533 -0.056883484 -0.14379936 0.08653657 0.020418111 -0.11111792 -0.06436521 -0.1095354
-0.05046409 0.15078826 -0.038358446 -0.028354544 -0.1082453 -0.14699496 0.10854514 -0.12835534
-0.034523737 -0.12268842 -0.245445 -0.082004346 0.04941983 0.069857754 0.082168005 -0.19031213
0.1029198 -0.09149501 0.034956504 -0.15760122 -0.03235621 -0.048073206 -0.087137535 -0.003931262
0.018010141 -0.07902433 -0.122140504 0.034308176 -0.11408876 -0.13076925 -0.13879097 -0.13007632
0.07608391 -0.13032101 -0.19160801 -0.10279547 -0.004897504 -0.13966307 0.0018536731 -0.1349173
-0.043354552 -0.002392412 0.019687597 -0.19464877 0.025199467 -0.054020286 -0.16173036 -0.036856957
-0.14544524 0.014661839 -0.02090731 -0.13611095 0.024376828 0.055693418 -0.19806655 -0.0044899886
-0.08193698 -0.114815935 -0.20555727 -0.042126164 -0.10616714 0.056607757 -0.12550068 -0.175893
-0.046583626 -0.11304397 -0.11503924 -0.06693835 -0.08658633 -0.013399645 -0.097944655 0.08084625
-0.002407378 0.07332896 0.14266978 -0.020690912 -0.120999545 -0.06558938 -0.11012419 -0.0016763643
-0.01066912 0.090857215 0.023429668 -0.0066188523 0.0048242602 -0.011560332 -0.075242214 -0.18955489
-0.024689762 0.081094645 -0.18220577 -0.13341734 0.104920626 0.0640906 -0.11757364 -0.02866972
0.05686356 -0.04329558 -0.029876502 0.11181865 -0.06634739 0.07617242 0.11516859 0.0152766295
0.047506027 -0.014108595 -0.02472934 -0.033019185 0.08039427 0.092536435 -0.056762934 0.011211621
-0.08513726 -0.06574346 0.14148973 0.100656845 0.10238012 -0.09543725 0.021409143 0.04322143
0.026821129 0.06691195 0.015506792 -0.07345873 0.013646961 0.016782908 -0.026859984 -0.047431897
0.060010016 -0.040259745 0.025369603 0.010979888 0.03420416 -0.07370319 0.025101282 -0.08790587
-0.08742379 -0.0525791 -0.018183313 0.037473764 -0.11384559 0.06061991 0.006137805 0.07788783
-0.11372366 -0.084539495 0.054198697 0.09914498 -0.003603235 0.05456808 -0.03564579 0.020195449
0.01783165 0.08314321 -0.025856422 -0.06515808 -0.046719756 0.06757435 -0.05698362 0.13594158
0.101789966 -0.1145687 -0.0031305954 -0.030744437 -0.021899687 -0.07380821 -0.13438828 0.025322255
0.07324622 0.07737101 -0.011182764 -0.06826401 -0.17433001 0.00091617455 0.03314959 0.02081321
-0.010396319 0.10771489 -0.094182946 -0.111668594 -0.16548494 -0.022572938 -0.055572014 0.009392896
0.029186683 -0.15267834 -0.043532062 -0.07697187 -0.20035775 -0.14594401 -0.15459229 0.058612544
-0.17646514 -0.123545684 0.05636613 -0.13662311 0.091198646 -0.20308962 0.026984682 -0.056125645
-0.04129567 -0.091171674 -0.10087987 -0.11607358 -0.14915384 0.071450606 -0.07506272 -0.0021515968
-0.14064895 -0.05213673 -0.012592318 -0.15837272 -0.05443777 -0.026681356 -0.0496252 0.022157196
-0.15985619 -0.16994561 0.029509798 0.09557403 -0.12866168 -0.039707933 -0.059536163 -0.16851234

bias_hh_l0 f4 [240]
00000000: 70c5 413d 0793 a9bd 8a18 34be 2372 eabd
00000010: a487 833d 6639 c6bd e624 30be 52c9 bf3d
00000020: 3c12 45be fa0a 143d 65aa d7bc 48b1 05be
00000030: 784d d6bc f783 18be 5be2 58be e316 a7bc
00000040: 2ca5 1fbe f64a ecbc 7609 04bc f239 bfbd
00000050: 925e cd3d 01ce 4abe 2a8d b9bc 8e98 72bd
00000060: c552 43be 5855 08be fdfc bcbd 200c 3bbd
00000070: 5c36 f9bd cc35 1cbe 0d95 223d 738a 78be
00000080: c579 12bc d9de 02be 3529 73bd 8b3c 26bd
00000090: 8251 8ebd b0bd b8bc d841 01be dc68 b83b
000000a0: 2273 3bbd c4ea ebbd 5874 02be e394 113c
000000b0: 93b0 61bc ccb2 ab3d 4ec3 62be d17a eabd
000000c0: 167d 693d 4775 e53b 488e b2bd cdde 073d
000000d0: 0672 ce3c 0000 2cbe 6d19 fabd e5b6 c1bd
000000e0: 1ae9 f13c 3bac c3bc 620d 14bd 99cd d23c
000000f0: 8d90 133c 3c3a 113d 16d8 2ebd 72a2 a23d
00000100: 2ba5 af3d 3612 833d 5354 2dbe c130 8a3d
00000110: a798 39bd 3875 b8bc 6b41 b6bd c7eb d53c
00000120: 1fdd 33bd ef1d 833d 19e1 bbbd c4b3 f5bd
00000130: 14dd 8c3d 2874 9cbd c0af 09be eb6b a1bd
00000140: 7633 86bd 4c51 82bd f76a e13d 3feb 90be
00000150: 4dee efbd 12eb d13d c994 61be 16d1 80bd
00000160: 246d b03c 3601 743d 0da4 863d a01d d7bd
00000170: 831a 8cbc 62f4 8e3c eba1 cfbd e65e dbbd
00000180: 4ee1 a0bc 1226 26be cf0d 113d 5554 4cbd
00000190: 6381 28be 5664 bebb c5f5 7abd ca27 8d3c
000001a0: 903a 3cbc 252a 9f3d 9e74 19be ed33 27bd
000001b0: 7feb 0e3e 725d 903a 1446 3dbe a54e 34be
000001c0: ebe4 ad3c 8f24 18be e6d4 15ba c994 94bd
000001d0: 4efc ea3d 7c3e 22bb 9ba4 4ebd 3632 23bd
000001e0: 0672 1abd c15d 843d 25ab 7d3c 983c ff3d
000001f0: 3bcf 97bc 8092 3fbd c89c 473d 648e 483c
00000200: 93b3 77bd be47 d2bd 5b0c 5fbd 4c46 b73c
00000210: 2599 d5bc 6282 063d a568 b9bd 145a 5abc
00000220: 11dd 3b3d 80f4 92bd 9f71 45bc 7ff0 d53d
00000230: ab17 0a3d 6182 ad3c a023 7f3b e717 3b3d
00000240: d7c3 c0bd c508 bdbd 9d14 dc3d b467 783d
00000250: f3fc 16bd 93c4 8bbd eb4e 843d 19a9 6c3d
00000260: 3501 15be ddf8 39bd faf3 af3d 0fba c43d
00000270: 6353 4ebd 53cc 493d cc3e 6c3b d07d 85bd
00000280: 42b6 333d 45fd 61bd da24 193d 046a 0fbd
00000290: ccf9 c63d 3b0f 44bd d23a f43a 354c 94bc
000002a0: 9627 a83d 88f4 68bc 9239 813d f270 95bd
000002b0: e3c4 66bd 560e 183d a759 0c3d 9172 4abd
000002c0: 1cb8 bbbd 5c08 43bd ef78 733d d546 9b3d
000002d0: 0f03 8cbc 5632 e13d cfba 2fbe 936d c8bd
000002e0: 5d13 aebc 75d7 25be f2a2 a2bd b1bb 58bd
000002f0: 3f0e b7bd 89c0 55bd bd0d ea3a 0f30 093d
00000300: 5de5 80bd f466 bdbd 75eb 27be 8187 f8bd
00000310: c7f4 65bd d11a a13b ac88 0abe 3084 33be
00000320: 5f42 513d ec6a 52be bfb4 dabd 9f48 0bbe
00000330: 5bde f2bd a770 2e3c 5325 7cbe fd2c 0a3e
00000340: 1424 46bc 79fa b8bd ed98 80bd ad5d 53be
00000350: 384a 8a3d 22d5 59be 72a1 f0bd 97be 14bd
00000360: ecfa a4bd 06e9 b7bd 49c7 453d db25 2abe
00000370: 4fdb 49be 9a3d 97bd 24bc 4cbe ce92 3ebd
00000380: 88dc 27bd 61db 7c3c 7117 38be e7cd 1fbe
00000390: 81ea a73d 925d 803c 775b 3abe 25f9 8dbd
000003a0: faf8 a2bd a8df 12bc b148 3ebd f797 ea3d
000003b0: 4be9 ba3d 25ba c53d 390d d53c c562 89bd
0.04730743 -0.08279996 -0.17587486 -0.11447551 0.06422356 -0.09678917 -0.17201576 0.09364571
-0.19245237 0.03614328 -0.026326368 -0.13055909 -0.026159987 -0.1489409 -0.21180098 -0.020396655
-0.15590352 -0.028844338 -0.008058896 -0.09337224 0.100278035 -0.19805147 -0.02265032 -0.05922752
-0.19074543 -0.13313806 -0.09227941 -0.04566586 -0.12168571 -0.15254897 0.039692927 -0.24271564
-0.008940165 -0.12780322 -0.05936547 -0.040585082 -0.0694914 -0.022551388 -0.12622774 0.0056277346
-0.045764096 -0.11519387 -0.12739694 0.008885595 -0.013775009 0.08383712 -0.22144815 -0.114492066
0.057004057 0.007002506 -0.08718544 0.033171464 0.025200855 -0.16796875 -0.12211881 -0.094587125
0.029530097 -0.023885837 -0.036145575 0.025732802 0.009006632 0.035455927 -0.042686544 0.0794114
0.08576425 0.06399958 -0.16926698 0.0674758 -0.045311596 -0.022516832 -0.08899196 0.026113404
-0.04391205 0.06402194 -0.09173793 -0.11997178 0.06878105 -0.076393425 -0.1344595 -0.07881912
-0.06552784 -0.063631624 0.1100673 -0.2830448 -0.11715374 0.10249914 -0.22029413 -0.0628988
0.021536417 0.059571467 0.06574259 -0.105036974 -0.017102486 0.017450515 -0.10138305 -0.1071146
-0.019638684 -0.1622546 0.03541356 -0.049885113 -0.16455607 -0.005810301 -0.06126954 0.017230887
-0.011488572 0.0777171 -0.14985892 -0.040821005 0.13957022 0.0011014177 -0.18483764 -0.17608126
0.02122732 -0.14857696 -0.0005715623 -0.07254941 0.114739046 -0.0024756482 -0.05044995 -0.039842807
-0.037706397 0.06463195 0.015482699 0.12462729 -0.018531432 -0.046770573 0.048733503 0.01224098
-0.06047399 -0.1026759 -0.054455142 0.022372387 -0.026074002 0.032839186 -0.090531625 -0.01332714
0.045865122 -0.07175541 -0.012051015 0.104462616 0.033713978 0.021180334 0.0038931146 0.045677092
-0.094123535 -0.09230188 0.10746119 0.060645774 -0.036862325 -0.06824603 0.06460365 0.05777845
-0.14551242 -0.04540335 0.08591457 0.096058 -0.050372493 0.049267124 0.0036048172 -0.065181375
0.043874986 -0.055173177 0.03738866 -0.035013214 0.09715614 -0.047866087 0.0018633252 -0.018102745
0.082106754 -0.014218457 0.06309809 -0.07296933 -0.05634011 0.037123047 0.034265187 -0.049425665
-0.091659755 -0.047615394 0.059441503 0.075818695 -0.017091302 0.10995929 -0.17161106 -0.097865246
-0.021249468 -0.16195472 -0.079412356 -0.05291337 -0.08938264 -0.05218557 0.0017856878 0.033493098
-0.062937476 -0.092481524 -0.16398413 -0.1213522 -0.05614164 0.004916527 -0.13528699 -0.17530894
0.051088687 -0.205486 -0.10679006 -0.13601921 -0.11858817 0.010646976 -0.24623613 0.13493724
-0.012093563 -0.09032149 -0.06279168 -0.20641203 0.06752437 -0.2127271 -0.11749543 -0.036314573
-0.08055672 -0.089799926 0.048285756 -0.16616003 -0.19712566 -0.073847964 -0.19993645 -0.046526723
-0.0409818 0.015433163 -0.17977692 -0.1560589 0.08199025 0.015669618 -0.18198954 -0.06932286
-0.07957645 -0.008964457 -0.046456043 0.11454766 0.09126528 0.09654645 0.026007282 -0.06708292

weight_ih_l1 f4 [240, 60]
00000000: e84f 703d 6bc2 18bd dc4b 5abd 7feb aabd
00000010: 9271 e1bd 7e2b 083d 6e62 dcbd 71b7 2ebd
00000020: 691d 283d 35e8 ff3d ab2f 493d f6e2 1bbd
00000030: 4acb f0bc 81b3 f03d dbd8 223e a4c9 12be
00000040: c79f 9cbc e322 edbc 36a7 d43b f376 57bc
00000050: 73e5 bc3c 92d0 09bd 4649 b73d f76a 4bbc
00000060: be15 bdbd 27aa 6fbe b8ae cb3c f182 cd3c
00000070: 5a0c 273e 7271 8ebd f196 62be e85f b7bd
00000080: 1199 733e 5f11 dbbc b97f b33d 9ebb abbd
00000090: 1ba8 b03e 754a ecbc 6d28 813d 74ea f83d
000000a0: 8447 74bd a3a6 00be e747 65be eaf1 343d
000000b0: 7364 30bc 5ed5 e3bc 90bf 833e 96b7 d23b
000000c0: c626 373e 8e9f 1cbd 87dc 02bd 8263 d23c
000000d0: 8c30 183d a0a0 cc3d 7870 f1bd 7b4b 0cbe
000000e0: aeee 1fbd d77d 1cbd ffb0 48be 071c 893d
000000f0: 9427 74bd d33d 2fbd fd1a 543d 096c 02be
00000100: 72dc e6bd a5f0 cf3d 1eae 963d aeae 38bd
00000110: c2f4 853d 8724 013e adc3 b2bd 6986 dbbd
00000120: 0ea1 8cbd 539a 97bd 4223 883b 07b0 d93d
00000130: c3aa e6bd d10b b13d 7b3b 323d 7a78 16be
00000140: 765f e0bd 1898 c63d 8cf2 673c 0b01 963d
00000150: a444 3d3d 4cea 83bd ebe3 703b a8d8 013d
00000160: 8b2a a13d 7a5b 48bc 0e2d 063c 7999 21be
00000170: 939a 5dbc a5e8 ba3d 0ef2 553d f97c 84bd
00000180: 9073 cfbd 3e5a 093d d9e4 ccbd 96c8 1fbd
00000190: ef2e 303d a293 dfbd 4d31 25bd e464 7abd
000001a0: 6934 6cbd 9a2e 6ebd 653e 003e 1482 8ebd
000001b0: 8ebf 17bd 2ee4 5c3c 4319 2a3c 3600 193d
000001c0: 54c3 f6bd e8c7 aa3d ea8c 16bd d85a 8a3d
000001d0: 138a 15be 8e30 f6bc 70c6 7e3d 7a53 de3d
000001e0: c700 9cbd 7b09 713d 2583 bebd 4af0 203d
000001f0: 7ad5 a63d 7011 30bc 3cbe cb3c e392 3cbe
00000200: e4d2 53bc 3f2a 093e 090c f9bd 4f38 d8bd
00000210: a006 28bc 3463 6dbd 3dc3 da3d b34c 90bd
00000220: 34cf 02be aac4 1a3e ff3b c13c 8baf cbbb
00000230: e944 9f3d bee8 b53d f9e7 aebc 055b a6bc
00000240: 0c45 153d 99ae 103c c2b9 c3bc 237b 23be
00000250: cf7d 9ebb 287b 2dbb 0c23 bcbd 704b efbd
00000260: 4b0e 033b f1fe f43d 3ccc 55bd ebd5 38bd
00000270: dc1b 5b3e d8e9 23be e74b acbd 6b78 c23d
00000280: 12c3 1dbd ae3b c23c 49a1 863c 3d57 56bd
00000290: b5b9 173e 19d1 3fbc 168d a03c 06f0 fb3c
000002a0: 1266 e6bc b844 71bc cb56 b5bd a773 4e3d
000002b0: 7019 6a3d 5e93 1cbe fed8 a8bd 54e8 23be
000002c0: 3516 00bc e596 383b 15f7 1dbe 67e2 75bd
000002d0: 3893 663d 7452 3bbd 48f3 083e 37b7 e2bd
000002e0: 21ce 0e3e 2b4b 9a3d fe21 8fbd fec1 3e3d
000002f0: d494 34bd 1249 fc3d 30d3 c5bd 2780 ffbc
00000300: 5d6f 8d3c fc97 e93d fda1 fb3d 16c4 9a3d
00000310: 77b2 733b 7cfe b23d 5430 8fbd a077 573b
00000320: ae2a 5f3a 5c6d 413d c64f f93b 1180 073d
00000330: e145 b53d 094b adbd d9a3 e63d 749f 833d
00000340: ac53 15be ee20 a53d bb77 823d d492 7a3d
00000350: ae37 17bd e73d ef3d 3a59 383e c143 93bd
00000360: bfee a63b 9c6d 4d3d 1ef3 903b 414f c1bb
00000370: 3269 f03c 2805 f03d e127 4c3c 21b1 aabd
00000380: 18a0 eb3c 4b9a b9bc 87a1 4cbd 368d 3fbd
00000390: 0ff4 eabc 0506 7bbb 9a34 55bc 6665 b03d
000003a0: 54ee b03c eabe cc3d 7f45 223d 81a1 0b3e
000003b0: 5a3c 103e da88 253d ce02 3e3e 6a2a abbc
000003c0: a3e2 223c 742b 2cbe 3f07 153e 32df bebd
000003d0: 4c78 3c3c 2592 60bd 4354 0abe c5c6 3fbd
000003e0: 3bc5 343c 951b 133e e28c af3d 4c69 833d
000003f0: 6056 6cbc d006 c33c 8abc 663e 80d9 b03d
0.058669955 -0.037294786 -0.053295 -0.083456986 -0.1100799 0.033244602 -0.107609615 -0.042655412
0.041043673 0.12495462 0.049117725 -0.038058244 -0.02939381 0.11752988 0.15903036 -0.14334732
-0.019119157 -0.0289473 0.0064896597 -0.013150918 0.023058629 -0.033646174 0.08949523 -0.012415639
-0.092326626 -0.23404752 0.024863586 0.025086852 0.16313305 -0.06955232 -0.22127892 -0.089538395
0.23788859 -0.026741682 0.087645955 -0.083853945 0.34503254 -0.028844098 0.06306539 0.121540934
-0.059638515 -0.12563567 -0.2239071 0.04417602 -0.010766136 -0.027811702 0.25732088 0.0064305766
0.17885885 -0.0382381 -0.031948593 0.025682215 0.037155673 0.09991574 -0.1178903 -0.13700669
-0.039045982 -0.038205948 -0.19598769 0.06694799 -0.059608057 -0.04278357 0.05178355 -0.12736525
-0.11272515 0.10153321 0.07357429 -0.045088463 0.065408245 0.1261159 -0.087287284 -0.10718996
-0.06866656 -0.07402482 0.0041545937 0.10629278 -0.11263039 0.08644832 0.043513756 -0.14694396
-0.10955708 0.09696978 0.014156949 0.07324418 0.04620804 -0.06441173 0.0036756943 0.03170076
0.078694426 -0.012228841 0.008189453 -0.15781201 -0.013525623 0.09126405 0.052232794 -0.06469149
-0.10129464 0.033533327 -0.10004587 -0.039009653 0.04301351 -0.109168306 -0.04033022 -0.061131373
-0.05766717 -0.05814991 0.12523802 -0.06958404 -0.037047915 0.013482137 0.010381999 0.037353717
-0.12048975 0.0833891 -0.03675548 0.06755608 -0.14603452 -0.03005245 0.062200963 0.10855766
-0.07617336 0.058846932 -0.093023576 0.039291658 0.08146186 -0.010746345 0.024870984 -0.18415408
-0.012928698 0.13395022 -0.12160499 -0.10557615 -0.010255486 -0.057955936 0.1068177 -0.07045879
-0.12774354 0.15114084 0.023588179 -0.0062159947 0.077768154 0.08882283 -0.021350848 -0.020307073
0.0364428 0.00883069 -0.023892287 -0.15964942 -0.004836775 -0.0026471112 -0.09186372 -0.116843104
0.0019997533 0.11962689 -0.052196726 -0.045125883 0.21397346 -0.16007173 -0.08412915 0.09495624
-0.03851611 0.023710098 0.016434329 -0.05232929 0.14816935 -0.011707568 0.019598525 0.0307541
-0.028124843 -0.0147258565 -0.08854445 0.050403263 0.057153165 -0.15290591 -0.08244513 -0.16006595
-0.007817795 0.0028166112 -0.15426286 -0.060030367 0.056292742 -0.04573293 0.13374054 -0.11070102
0.1394582 0.075338684 -0.06988905 0.046571724 -0.044087246 0.123186246 -0.096594214 -0.031189037
0.017265016 0.11405942 0.12286756 0.07556932 0.003718523 0.08739945 -0.0699164 0.0032877699
0.00085131347 0.047223434 0.0076083867 0.033081118 0.08851219 -0.084615774 0.1126172 0.06426898
-0.145827 0.080629215 0.06370493 0.061175182 -0.036918335 0.11681729 0.18002787 -0.071906574
0.0050943787 0.05015336 0.004423513 -0.0058993404 0.029347036 0.117197335 0.01246068 -0.08334566
0.028762862 -0.02265658 -0.049958732 -0.04676553 -0.02868083 -0.0038303148 -0.0130130295 0.0861309
0.021598019 0.099973515 0.039617058 0.13635828 0.14085522 0.040413715 0.18555757 -0.020894248
0.00994173 -0.16813451 0.14553545 -0.09319915 0.01150329 -0.054826874 -0.13508706 -0.04682042
0.0110333515 0.1436599 0.08571793 0.06416568 -0.01442489 0.02380696 0.2253286 0.08635235

weight_hh_l1 f4 [240, 60]
00000000: 69b0 53bd 8c6e 193e c54a aebd 22fd e03d
00000010: b994 6bbe d4a6 0bbd a61a 5fbb 7e31 523e
00000020: 64a5 3b3e 439b 64bd 525f b2bd e548 3bbc
00000030: fa8f 6f3d 9537 01bb b41f 59bc f60f 97bd
00000040: 858f 2abb d330 46bd 331a ecbd e532 91bb
00000050: 109a 8ebd ea4f eabc ee84 16be 1522 913d
00000060: 1928 3abd 9513 91bd e9d9 db3d c733 ddbd
00000070: 7864 67bd 7c70 993d d3c4 d4bd 9705 c83d
00000080: d477 12bd 977c e23c 0ff9 86bd bffa 15be
00000090: 4c77 24be c83b 97bc c59b d7bd d567 09bd
000000a0: 62c4 313d 61ff 5abd 99c4 10bd cb01 873c
000000b0: 4744 643d 7e9a 94bd 07b9 8cbc 175e 39be
000000c0: 3ae9 ca3d 793c 58bd 9212 8a3b d5e4 9f3d
000000d0: a388 2cbd ce61 b03b 98a3 fd3b 54df 27be
000000e0: ffd0 34be 1d9f 3dba 16c0 2bbd fee6 e73d
000000f0: 8217 443d fb17 cfbd 2346 053d 75a6 e2bd
00000100: 9049 cfba cb3f c53d 7ab0 f13d 16d4 e33d
00000110: d824 27be 7173 b5bd fbc9 bdbc 5de8 c8bc
00000120: 8814 b13d cbf7 c6bd 3c41 313d 082f a0bd
00000130: 9a6e b2bd c061 a4bd eed2 e43b b151 6939
00000140: e96b 9abd c013 9b3d 1e1e e13d 2835 423d
00000150: e112 5a3d 4e10 8a3d 9894 0cbb ccbe 8fbd
00000160: f751 d2bd 137a 0c3d 7ed9 e5bc ac3d 21be
00000170: f096 29be 2946 393d 529a 17be c1a3 06bc
00000180: 800e 33be 26a8 fd3d d976 213c 0dac 20bd
00000190: aa7b 1ebe 51fd dfbc 08a3 93bc 42ee 073d
000001a0: 6ad0 ef3d 627e e23c 1aa2 1fbd 7ed4 f9bd
000001b0: 0302 653d fb12 25bd cd44 863d 2811 bfbb
000001c0: 6e8e 553c b603 923d 02a0 01be 79e7 c1bd
000001d0: cfd4 b53b d81f 513d 64b2 9dbd dfde 8eba
000001e0: af84 33be e41a 10bd 81bb d2bb 7dd3 aabd
000001f0: 6eaa 1f3d fa6b 71bd c9dd 52bd a00b 45bd
00000200: 581c 643b 60ce ae3d c048 bfbd 4474 d3bd
00000210: e438 a1bc 0a74 233c 93c1 9ebd d7b5 2d3d
00000220: 7a4f 173d d3bc d23d 5563 8bbc 6032 06bd
00000230: e7cc 11be 2f9a 59bd 9f17 8cbd cadb 85bd
00000240: b417 9fbd 4f4e 1d3b 36c9 0cbd 10c8 a6bc
00000250: f983 1abd be0e 95bd a02b 303d 6339 ea3d
00000260: 6e2c 433d ee9b bc3c f0c2 84bd 646c cebd
00000270: 2eac 5fbd 4e10 503d ec99 28bd f71d 233e
00000280: 5f6e 0f3d bfcc 31be d128 2cbd 60e1 c53b
00000290: c2f7 52bd c9d6 71bd 8a62 3bbe 75fa 4bbe
000002a0: 8864 6bbd e509 f3bd 4109 22bd fdf4 163e
000002b0: c4b6 37be 02a1 293e 8c96 66bd 659c d0bd
000002c0: ab6d 89bd 43ee 1a3e e0e0 493c 0040 d13d
000002d0: b32f 203e e5c6 83bd 28d6 de3d 4ed7 30bc
000002e0: 7d2d 8cbd b979 833c c830 02bc 049f c8bd
000002f0: cd61 53bc fa8c 20be 5ac6 b1bd a87e 77bd
00000300: 4b2a 583d 5fa6 633d 5e8e a83d 0e01 a0bd
00000310: 3e6e e3bc a15a bcbd cd6a b93c 69ac ec3c
00000320: e3ac 6e3d ab0e a83d a10c 16be a518 9d3d
00000330: bbfb aebd 4298 d1bd cb49 073e dd8d 8d3d
00000340: 6bd3 fabc 8da4 753c b67f 14bd 269c 32be
00000350: 5cf8 eebd 9361 273d 04ab c33d 00a6 cebd
00000360: 48a9 063e afc1 6b3d 9085 e23c b43a e33d
00000370: abb9 edbd b5ea ffbc d7ac b53c a91a f2bd
00000380: 95e7 4d3d b59c 143e 5835 0abd 3e64 99bd
00000390: fa57 863b c65c c23c 7400 4abd 4fe2 f0bd
000003a0: 0be1 98bd 7dd0 dabd a1b0 d6bd c50c 0cbe
000003b0: 523a dd3d b984 233e 5939 84bd e188 5ebd
000003c0: b785 a23d fe10 b6bd 1fdd a43d 6d9f 7c3b
000003d0: 0cec 1bbe 57fb 8bbc 6c88 fa3d 885d 053e
000003e0: 7ec0 45bd c8c3 143e d5a5 3ebe e2d4 5cbd
000003f0: 09a5 2c3d cb48 3f3d efd1 123e d4ed 663b
-0.05168191 0.14983577 -0.08510355 0.10985781 -0.23005952 -0.034094647 -0.0034042983 0.20526692
0.1832481 -0.05581213 -0.08709587 -0.011430954 0.058486916 -0.0019716967 -0.0132521875 -0.07376091
-0.0026025486 -0.048386406 -0.115284346 -0.004431116 -0.06962979 -0.02860256 -0.14699146 0.07086579
-0.045448396 -0.07083813 0.107349224 -0.10800891 -0.0564923 0.07492158 -0.10389104 0.09766691
-0.03575881 0.0276473 -0.06590473 -0.14646433 -0.16061133 -0.018461123 -0.105277576 -0.033546288
0.043400176 -0.053466205 -0.03534374 0.016480347 0.055729177 -0.072560295 -0.017178072 -0.18102299
0.09907766 -0.052792046 0.0042136395 0.07807318 -0.042122494 0.005382753 0.007740449 -0.16393787
-0.1765785 -0.00072334876 -0.041931234 0.11323355 0.04787398 -0.10111996 0.03253759 -0.110669054
-0.001581477 0.09631308 0.11801238 0.111244366 -0.16322649 -0.08859909 -0.0231676 -0.024524862
0.08646494 -0.097152315 0.043275103 -0.078214705 -0.08712502 -0.08026457 0.0069831526 0.00022251044
-0.075401135 0.075721264 0.109920725 0.047413975 0.05324066 0.06741391 -0.0021450873 -0.070188135
-0.1026954 0.034296107 -0.02805781 -0.15746182 -0.16561484 0.045232926 -0.14804962 -0.008217753
-0.17486 0.123855874 0.009854996 -0.03922658 -0.15476862 -0.02734247 -0.018022075 0.033186205
0.11709674 0.027648155 -0.03897295 -0.12198733 0.05591012 -0.040301304 0.065560915 -0.0058309026
0.013034446 0.07129614 -0.12658694 -0.09467978 0.0055490504 0.05105576 -0.07700041 -0.0010900161
-0.17531084 -0.035181895 -0.0064310436 -0.083411194 0.038980894 -0.058940865 -0.051481042 -0.04810679
0.0034806933 0.08535457 -0.09340048 -0.1032491 -0.019680448 0.009976396 -0.07751765 0.042409744
0.03694103 0.102899216 -0.017015139 -0.032762885 -0.1423832 -0.053125557 -0.06840443 -0.06536062
-0.07768193 0.0024002974 -0.034371577 -0.02035907 -0.037723515 -0.072782025 0.043010354 0.11436727
0.047649793 0.023023572 -0.06482494 -0.100792676 -0.054607563 0.0507968 -0.041162416 0.159294
0.035017367 -0.1736326 -0.042031113 0.0060388297 -0.05150581 -0.059042726 -0.18299308 -0.1991976
-0.05746892 -0.118671216 -0.039559606 0.14741893 -0.17940813 0.16565326 -0.056295916 -0.1018608
-0.06710371 0.15129952 0.012321681 0.10217285 0.15643196 -0.064344205 0.10880691 -0.01079352
-0.06844614 0.016049253 -0.007946201 -0.09795955 -0.0129017355 -0.15678778 -0.08680411 -0.060423523
0.05277471 0.055578586 0.082302794 -0.07812701 -0.027762529 -0.091969736 0.022633934 0.028890805
0.058270346 0.08205923 -0.14653255 0.07670716 -0.085441075 -0.10234119 0.13211744 0.06911824
-0.03061839 0.014992845 -0.036254607 -0.17442378 -0.116684645 0.04086454 0.09554103 -0.10090256
0.13150513 0.057557758 0.027651578 0.11095181 -0.11607679 -0.031239847 0.022177143 -0.11821491
0.050269682 0.14512904 -0.03374228 -0.07489823 0.004099843 0.023725878 -0.04931684 -0.11761915
-0.074647985 -0.10684297 -0.10482908 -0.13676746 0.10802139 0.15968598 -0.06456251 -0.054329757
0.0793566 -0.0888996 0.08049988 0.0038547174 -0.15226763 -0.017087622 0.12233052 0.1302396
-0.048279278 0.1452781 -0.18617947 -0.05391396 0.042149577 0.04670028 0.14337896 0.0035236971

bias_ih_l1 f4 [240]
00000000: 89ee 76bd 76ff 2fbd d205 6abd 5c02 96bd
00000010: bd60 8b3a dbe3 7cbd c6ed b6bd 47c1 00be
00000020: 4a6f ac3c e5cd 773d 6207 683c 87d4 b13d
00000030: 13bc d03b 3b05 0c3d 9563 9a3c b53c 09be
00000040: 4692 0ebd 520c 77bd d998 e4bc ffb6 98bb
00000050: 3a23 88bc 8d87 eabd 0a16 f8bd cdbf d4bd
00000060: 6ab3 813c 8c91 abbd 9c6c 7c3c 2c40 7dbd
00000070: 91b7 0abe abdd 32be 1f77 d9bc f514 b93c
00000080: ec5b 8fbd 8251 afbd 35aa 03be d0ba 9cbd
00000090: 7a87 90bd e812 06be 20ba b3bd e80e 6fbd
000000a0: e4f5 95bc 8dd0 e7ba 46b0 b3bd f3bd 2abd
000000b0: 26e7 293c ace4 4e3a 0228 e7bd 5d42 2d3d
000000c0: 00a0 f4ba ed38 a1bc fe68 8d3c becb 8fbd
000000d0: 9564 9d3c 45b3 c1bd ae3a 23be 7dba a23b
000000e0: 588b 18bd ce08 d0bd 5eb3 15be 7bd3 f9bd
000000f0: a4a6 23be 6d8a 38bd 7be3 333d 7e33 f2bd
00000100: 9e7f 99bd 550a 1b3d 200b 39bd 0e3d c6bc
00000110: 6c06 8a3d 06cc 2bbd 3dab 203d c244 9cbd
00000120: da10 aebd 9b70 66bd ad24 573c 7798 f63d
00000130: c5f4 febc 796c 373d e30f 59be 987c eebd
00000140: fbd5 b6bd 71e7 0d3d e7b3 173d 65f5 cf3c
00000150: bd35 a2bc a9ae 2f3d fc15 0b3d 1811 26be
00000160: c455 e1bd 703b 00be 7cfc cf3c 2160 ccbd
00000170: 5961 07bd 05dc 21be 4eb8 20be 9522 1cbe
00000180: 4d9d c2bd ecec 1bbe c458 22be 25cd b1bd
00000190: 01dd 50be cb85 87bd 2927 11bd 4736 7fbc
000001a0: d906 c5bd f92a 293d 9c6a a9bd 1f09 0abe
000001b0: 04dc 12bd 99d3 54bd 7536 2bbd 0246 0fbd
000001c0: 88c6 c2bc 7a1b c33b 764a 09be 929f 19bd
000001d0: 1e57 ddbd b40c b2bd f857 78bd fccc 93bb
000001e0: 1539 0e3d 255c c9bc 88f1 283d 975a 103c
000001f0: 50ac 8e3d 0028 a2bd 7177 55bd 9b2f 84bd
00000200: 7507 96bc 4871 56bb 3156 38bd 994e fb3d
00000210: 5d9c 783d ef09 a1bc c05c 573c 45ee 7dbb
00000220: 03ca d63c fb6a 8c3d 367d 6d3d 1b5e e0bd
00000230: ae2b a93d 4b3b f2bd 7b84 663c 35db a83d
00000240: b53b 933c 6446 653d 8309 aebc d3c7 a63d
00000250: d73d d8bd 1ad5 d73c dd88 eebb f53b 27bd
00000260: c893 953d f230 85bd e979 84bd c69b fc3b
00000270: 5b10 cfbd bfb0 19bd a8c5 d83d 0ddd c2bd
00000280: 9900 25bc afe4 213c e99a 35bc c3c7 edbd
00000290: 5a87 4c3d b338 4ebd 2ae8 8ebd a55d 933d
000002a0: 1bd0 623d d970 e73b 0247 8bbc 1ec0 31bd
000002b0: 06b0 bb3d 141c f9bc ae85 a2bd 3015 783d
000002c0: db6b ec3b 6581 5abd 56d7 9dbd 17a3 c7bd
000002d0: 1aa6 2abe e347 bc3c c55e 0dbd 42be 4abd
000002e0: 6b7d 943c 1f1f 86bd f9e9 8c3c 7765 d8bc
000002f0: 2cce 7e3d fb62 d0bc 0834 503d 505c d6bc
00000300: 897f 90bd 49f8 36bd a5fb 57be 0ce6 963c
00000310: 463c 4dbe 7954 e4bd 2717 0bbe 69ae aebd
00000320: ff89 8ab9 7c2b ce3d 33e7 5a3d c310 3cbe
00000330: 0976 433d 4c00 78bd fb5f 10bc 614e 64be
00000340: e020 bdbd 8687 45bc f3b5 85bc c2de 03be
00000350: ccd9 c6bd f9a3 49be c5ae 463d 9e66 10be
00000360: 47b0 9a3d 1069 19be 2a19 26be 073c a1bd
00000370: aa60 cebd 4f79 6bbd eefd 37be 26e2 a7bb
00000380: 43ff 29be d8b1 f13b b4cd 723d 5cea e9bd
00000390: 0b61 f53c 98fc 9cbb eb6c c13c 7a45 8fbb
000003a0: 41e1 b2bd 9ae7 7f3d 93ed 0cbd 0021 05bc
000003b0: 2f46 c0bd e778 1a3d 75e1 b5bd f59c 31bd
-0.06028608 -0.042968236 -0.057134457 -0.07324669 0.0010633689 -0.061740737 -0.089320704 -0.1257373
0.02104916 0.06049909 0.014161916 0.086831145 0.0063700764 0.034184676 0.018846313 -0.13402064
-0.034807466 -0.060314484 -0.027904915 -0.0046604867 -0.01661836 -0.114516355 -0.121135786 -0.103881456
0.015832622 -0.0837737 0.015406754 -0.061828777 -0.13546588 -0.17467372 -0.02654606 0.022593
-0.069999546 -0.08560468 -0.12857898 -0.07652819 -0.0705709 -0.1309315 -0.08775735 -0.058363825
-0.018305726 -0.0017686054 -0.08773856 -0.041685056 0.0103700515 0.0007892351 -0.11286928 0.042299617
-0.0018663406 -0.019680465 0.017261978 -0.070212826 0.019213 -0.09458021 -0.15940353 0.004966079
-0.037242264 -0.10157929 -0.14619204 -0.1219854 -0.15981537 -0.045053888 0.043918114 -0.118262276
-0.07495044 0.03785165 -0.045176625 -0.024199035 0.06739506 -0.04194262 0.039225806 -0.07630302
-0.08499308 -0.056259733 0.013131303 0.12040799 -0.031122575 0.044781182 -0.21197467 -0.11644858
-0.08927532 0.034644548 0.037036803 0.025385568 -0.019801015 0.04289118 0.033956513 -0.16217458
-0.110026866 -0.12522674 0.025388949 -0.09979273 -0.033051822 -0.15806587 -0.15695307 -0.15247567
-0.09502659 -0.15227097 -0.15854174 -0.08681706 -0.20396806 -0.06617316 -0.035437737 -0.015576906
-0.09620447 0.041300748 -0.08272287 -0.13480042 -0.035854355 -0.051959608 -0.04179998 -0.034978874
-0.023776308 0.005954203 -0.13407311 -0.037505694 -0.10807632 -0.08693829 -0.06063077 -0.00451052
0.034722406 -0.02458007 0.041245967 0.008810661 0.0696646 -0.07917786 -0.05211586 -0.064543925
-0.018314103 -0.003272133 -0.045004074 0.12270851 0.060695995 -0.019658057 0.013144672 -0.0038746756
0.026219374 0.068563424 0.05798074 -0.10955449 0.08260284 -0.118277155 0.014069672 0.082449354
0.017972806 0.055975333 -0.02124477 0.08143582 -0.1055867 0.026346732 -0.007279499 -0.040828664
0.07303578 -0.06503476 -0.06468565 0.0077089993 -0.101105414 -0.037522074 0.10584575 -0.09514818
-0.010070943 0.009881183 -0.011084297 -0.11610367 0.04993377 -0.05034704 -0.069778755 0.07195596
0.055374246 0.007063013 -0.017001633 -0.043396108 0.09164433 -0.030408897 -0.079356536 0.06056708
0.007215006 -0.053346056 -0.07707088 -0.09747904 -0.16664925 0.022983497 -0.034514207 -0.04949785
0.01812621 -0.06548905 0.01720141 -0.02641557 0.06220834 -0.025437823 0.05083087 -0.026167065
-0.070555754 -0.044670377 -0.21092089 0.018420242 -0.20042524 -0.111489244 -0.1358305 -0.0852936
-0.00026424226 0.10066888 0.053443145 -0.18365769 0.04771999 -0.060547158 -0.008811946 -0.22295524
-0.09234786 -0.012056237 -0.016322112 -0.12877944 -0.0970951 -0.19691457 0.048506517 -0.14101645
0.075531535 -0.14981484 -0.16220537 -0.078727774 -0.10077031 -0.057488736 -0.1796796 -0.0051233945
-0.16601281 0.007375937 0.059278205 -0.11421654 0.0299535 -0.0047908537 0.023611506 -0.004372296
-0.0873437 0.06247673 -0.034406256 -0.008125544 -0.093883865 0.037712958 -0.08880893 -0.043362577

bias_hh_l1 f4 [240]
00000000: da0c c8bd fa00 9b3d a025 cdbc 783f fd3b
00000010: 54da d6bd 853e e63d fd3f 84bd 99ce bebc
00000020: 9105 1dbe 8cf2 c1bd 4f0e e8bd 7179 b7bd
00000030: 08c8 1cbe a2b7 f4bd 9ef0 bcbd d9ba aa3d
00000040: 7490 0dbe ffcf 913c 3db6 0dbe 432c edbb
00000050: 40a5 a0bd 8bdb 03be a691 593d e74c efbd
00000060: ba1c 8c3c 9cfb 17be ba2c 24be 9b1c 44be
00000070: abe3 52bd 7df9 12bd 1340 893c 7567 9d3c
00000080: 7a77 b7bd 276e 99bd d816 d9bd aa4a 50be
00000090: 0cab 71bd ef18 32be b09f cebc 2bce 3abc
000000a0: 9027 c5bc 4b9b a8bd e758 d23c b7b1 04be
000000b0: f77b 2abd 0e0d 12be 9f27 fdbd f5c3 09be
000000c0: a60b 60be af01 c3bd d74c 48be 8d36 96bb
000000d0: 600c 39bd 330e be3d 35fe 31be 16e7 d5bc
000000e0: c7bf 273c eed8 99bd 98ad 8e3c 9e0f 3cbd
000000f0: fbdc dabc fa2f 593c 2a28 0fbe 7d3a 71bc
00000100: 7a10 cc3d 9ae6 993d f1c7 0ebe d767 b93d
00000110: 8273 0fbe a438 74bd 82e3 97bd 1954 783d
00000120: 7d94 0dbe 8aff a0bc fac6 9ebd cd27 c23d
00000130: 6deb 583b 5649 813c 039c 3abd d00b 01bc
00000140: fd69 143d 3ca8 7fbd 9ca8 01be f035 b7bd
00000150: 0fda 13be 254f 4a3d fbb1 f0bd 23fd 2dbd
00000160: 0e55 87bc 01bd e2bd 07fe 47bd 035f d3bd
00000170: 8e6f 04be a5ac b2bd 4636 3f3d bdb3 333d
00000180: 879d debd f455 d8bd 0e4f 0cbe f642 1e3d
00000190: 609b 1cbe c7ba d53d bdc2 43bd 4838 9e3c
000001a0: 4558 23be 9388 5cbd affb 3ebd 54cb 0ebe
000001b0: 08c5 c1bb 5685 ccbd 05d4 07be cf15 bebd
000001c0: e78a 253c 5ef9 78bc d8a2 e2bd 04ab ffbd
000001d0: 9cdc 5b3d 2396 733d 4d23 b3bd 5ace 1ebe
000001e0: 9aaf 88bc 9930 cbbd b8e6 d53b 8956 403c
000001f0: 1a37 2a3b dabd b6bd 1aea aa3c b542 583d
00000200: 8e9e 3cbd 69f2 253c a2a4 aa3d 3148 843d
00000210: a39d 9cbd 51f2 c63c 8133 07bd 0a0c f3bd
00000220: 0bfc a3ba e8f4 f8bd d2e6 71bd 5c88 0b3d
00000230: 9dee b33c 40f1 cdbd 429a 723d f6ee 1dbd
00000240: 843e a03d 063c c1bc fb1a 9bbd c064 56bd
00000250: b1df 9e3c 0701 403d 5c03 99bd d19d 823d
00000260: b077 3cbc a6da 083d 90aa eabc 1882 fa3c
00000270: 6713 d63d 9036 ba3c 35d4 06be f4e7 073d
00000280: 6238 96bd b0d4 a33d c35e 2fbd 1f03 d4bc
00000290: 9e48 8cbd 8faf 45bd 55e7 823d 76f0 c33d
000002a0: 0b5b 95bd c2a2 943d b782 543c 2cb2 dcbd
000002b0: 2823 a43d 6fae c7bd 3e0d 8f3d 71ce 933d
000002c0: 319d ad3c 1346 bcbd 58ae 923d b138 193b
000002d0: e3b9 1ebe cdc9 19bd 4815 2ebe 8b28 08be
000002e0: 1498 8cbc 224b 07bd b2c1 813a dea2 79bc
000002f0: 7aa1 edbd 55b2 d9bc e5b7 09be bc65 43bd
00000300: 4277 29be 0275 acbd 46d1 cabd 8e99 a63d
00000310: 4500 1bbe 26d2 46be 5384 23be a113 c9bd
00000320: 2c94 86bb ab64 61bd 2fb5 5a3d 56e8 7dbd
00000330: d7c0 9fbd 82e9 663b 30f3 47be d03b 273c
00000340: 3571 79bd 94a4 88bc a4fb 453d f6cb c23d
00000350: 20f5 3fbe 87fb 16be 14d3 3cbe 1005 14be
00000360: 07f1 8fbd 7ede 0dbe 4e35 23be 5b28 96bd
00000370: a2f0 20be 092a 863d 8d63 d3bd 0dc4 97bd
00000380: d1c7 11bd fcc0 803c ea88 0fbd 68b8 a2bd
00000390: 4b9e fdbd 1d75 4c3d aff2 2ebe 7b20 36bc
000003a0: 860f 0fbe 5c4c e9bd 0b8a b4bd 4740 8f3c
000003b0: d779 19be f482 0fbe 13c2 56bd 2886 1e3d
-0.09768076 0.07568546 -0.025042355 0.0077285133 -0.104908615 0.112423934 -0.06457517 -0.023291873
-0.15334155 -0.0947009 -0.11330854 -0.0895871 -0.15310681 -0.11949088 -0.092255816 0.083364196
-0.13824636 0.017799376 -0.1383905 -0.0072379424 -0.07844019 -0.12876718 0.053117417 -0.1168459
0.017103542 -0.14842075 -0.16032687 -0.19151537 -0.051486652 -0.03588246 0.016754186 0.019214371
-0.08958335 -0.07491713 -0.1060006 -0.20340982 -0.059001014 -0.17392324 -0.02522263 -0.011401693
-0.024066716 -0.08232745 0.025677158 -0.12958418 -0.04162213 -0.14262792 -0.12361073 -0.13453658
-0.21879444 -0.095218055 -0.19560562 -0.0045841397 -0.045177817 0.09280052 -0.17382129 -0.026111167
0.010238594 -0.07512079 0.01741676 -0.04591333 -0.0267167 0.013256067 -0.13980165 -0.014723417
0.0996408 0.07514687 -0.13943459 0.09053009 -0.14008906 -0.05962433 -0.074164405 0.060627077
-0.13826175 -0.0196531 -0.077527955 0.09480248 0.003309931 0.01578204 -0.04555894 -0.0078763515
0.03623389 -0.0624163 -0.12661976 -0.08945835 -0.14438652 0.049391884 -0.11752697 -0.042477738
-0.01652005 -0.11071206 -0.048826244 -0.103208564 -0.1293318 -0.087243356 0.04668262 0.043872584
-0.1086989 -0.10563269 -0.13702032 0.038638078 -0.15293646 0.104360156 -0.04779314 0.019313946
-0.15951641 -0.053841185 -0.046626743 -0.13944751 -0.0059133805 -0.09986369 -0.13264473 -0.092815034
0.010103918 -0.0151961725 -0.11066216 -0.124837905 0.053677186 0.059469353 -0.087469675 -0.15508404
-0.016685296 -0.09921379 0.006527748 0.011739382 0.0025972784 -0.0892293 0.020863581 0.05279799
-0.046049647 0.010128596 0.083321825 0.06459082 -0.07647254 0.024285467 -0.033008102 -0.11867531
-0.0012511028 -0.12156087 -0.059058018 0.03406559 0.021964366 -0.100557804 0.059229143 -0.03855797
0.07824424 -0.023588192 -0.075735055 -0.052342176 0.019393774 0.04687598 -0.07471344 0.06377757
-0.011503145 0.033411644 -0.028645784 0.030579612 0.104529195 0.022731096 -0.13166888 0.033180192
-0.07334973 0.07999551 -0.04281498 -0.025880395 -0.06849788 -0.04826313 0.06391779 0.09567349
-0.07292756 0.07257606 0.012970618 -0.10776171 0.08014518 -0.097500674 0.069849476 0.0721711
0.021193119 -0.09193053 0.0716216 0.0023379738 -0.15500598 -0.037545968 -0.17000306 -0.13296716
-0.01716236 -0.033030637 0.0009899645 -0.0152365845 -0.11603065 -0.026574293 -0.13449056 -0.047704443
-0.165494 -0.08420755 -0.09903197 0.08134757 -0.15136822 -0.19416103 -0.15968446 -0.09818197
-0.004107019 -0.055027645 0.053395446 -0.06198915 -0.07800453 0.0035234396 -0.19526362 0.0102071315
-0.06089898 -0.01668004 0.048335686 0.09511559 -0.18745852 -0.14744388 -0.18439895 -0.14455056
-0.07028394 -0.13854405 -0.15938303 -0.07331916 -0.15716794 0.06550986 -0.10321722 -0.074104406
-0.03559095 0.015717022 -0.03504268 -0.07945329 -0.123837076 0.049916375 -0.17084764 -0.011116142
-0.13970765 -0.113915175 -0.08815392 0.017486705 -0.14987884 -0.14014798 -0.052431177 0.03870216
